…
/user/home/bq18557/yolox-pytorch/data/dataset/coco_dataset/train2017/000000000019.jpg
/user/home/bq18557/yolox-pytorch/data/dataset/coco_dataset/train2017/000000000079.jpg
/user/home/bq18557/yolox-pytorch/data/dataset/coco_dataset/train2017/000000000115.jpg
/user/home/bq18557/yolox-pytorch/data/dataset/coco_dataset/train2017/000000000026.jpg
xxxxxxxxxxxx: torch.Size([4, 3, 800, 800])
xxxxx:projjjjjjjjjjjjj: torch.Size([4, 96, 200, 200])
flatten: torch.Size([4, 40000, 96])
pos_drop: torch.Size([4, 40000, 96])
--------------------------------------------------
0 BasicLayer(
  (blocks): ModuleList(
    (0): SwinTransformerBlock(
      (norm1): LayerNorm((96,), eps=1e-05, elementwise_affine=True)
      (attn): WindowAttention(
        (qkv): Linear(in_features=96, out_features=288, bias=True)
        (attn_drop): Dropout(p=0.0, inplace=False)
        (proj): Linear(in_features=96, out_features=96, bias=True)
        (proj_drop): Dropout(p=0.0, inplace=False)
        (softmax): Softmax(dim=-1)
      )
      (drop_path): Identity()
      (norm2): LayerNorm((96,), eps=1e-05, elementwise_affine=True)
      (mlp): Mlp(
        (fc1): Linear(in_features=96, out_features=384, bias=True)
        (act): GELU()
        (fc2): Linear(in_features=384, out_features=96, bias=True)
        (drop): Dropout(p=0.0, inplace=False)
      )
    )
    (1): SwinTransformerBlock(
      (norm1): LayerNorm((96,), eps=1e-05, elementwise_affine=True)
      (attn): WindowAttention(
        (qkv): Linear(in_features=96, out_features=288, bias=True)
        (attn_drop): Dropout(p=0.0, inplace=False)
        (proj): Linear(in_features=96, out_features=96, bias=True)
        (proj_drop): Dropout(p=0.0, inplace=False)
        (softmax): Softmax(dim=-1)
      )
      (drop_path): DropPath()
      (norm2): LayerNorm((96,), eps=1e-05, elementwise_affine=True)
      (mlp): Mlp(
        (fc1): Linear(in_features=96, out_features=384, bias=True)
        (act): GELU()
        (fc2): Linear(in_features=384, out_features=96, bias=True)
        (drop): Dropout(p=0.0, inplace=False)
      )
    )
  )
  (downsample): PatchMerging(
    (reduction): Linear(in_features=384, out_features=192, bias=False)
    (norm): LayerNorm((384,), eps=1e-05, elementwise_affine=True)
  )
)
--------------------------------------------------
1 BasicLayer(
  (blocks): ModuleList(
    (0): SwinTransformerBlock(
      (norm1): LayerNorm((192,), eps=1e-05, elementwise_affine=True)
      (attn): WindowAttention(
        (qkv): Linear(in_features=192, out_features=576, bias=True)
        (attn_drop): Dropout(p=0.0, inplace=False)
        (proj): Linear(in_features=192, out_features=192, bias=True)
        (proj_drop): Dropout(p=0.0, inplace=False)
        (softmax): Softmax(dim=-1)
      )
      (drop_path): DropPath()
      (norm2): LayerNorm((192,), eps=1e-05, elementwise_affine=True)
      (mlp): Mlp(
        (fc1): Linear(in_features=192, out_features=768, bias=True)
        (act): GELU()
        (fc2): Linear(in_features=768, out_features=192, bias=True)
        (drop): Dropout(p=0.0, inplace=False)
      )
    )
    (1): SwinTransformerBlock(
      (norm1): LayerNorm((192,), eps=1e-05, elementwise_affine=True)
      (attn): WindowAttention(
        (qkv): Linear(in_features=192, out_features=576, bias=True)
        (attn_drop): Dropout(p=0.0, inplace=False)
        (proj): Linear(in_features=192, out_features=192, bias=True)
        (proj_drop): Dropout(p=0.0, inplace=False)
        (softmax): Softmax(dim=-1)
      )
      (drop_path): DropPath()
      (norm2): LayerNorm((192,), eps=1e-05, elementwise_affine=True)
      (mlp): Mlp(
        (fc1): Linear(in_features=192, out_features=768, bias=True)
        (act): GELU()
        (fc2): Linear(in_features=768, out_features=192, bias=True)
        (drop): Dropout(p=0.0, inplace=False)
      )
    )
  )
  (downsample): PatchMerging(
    (reduction): Linear(in_features=768, out_features=384, bias=False)
    (norm): LayerNorm((768,), eps=1e-05, elementwise_affine=True)
  )
)
--------------------------------------------------
2 BasicLayer(
  (blocks): ModuleList(
    (0): SwinTransformerBlock(
      (norm1): LayerNorm((384,), eps=1e-05, elementwise_affine=True)
      (attn): WindowAttention(
        (qkv): Linear(in_features=384, out_features=1152, bias=True)
        (attn_drop): Dropout(p=0.0, inplace=False)
        (proj): Linear(in_features=384, out_features=384, bias=True)
        (proj_drop): Dropout(p=0.0, inplace=False)
        (softmax): Softmax(dim=-1)
      )
      (drop_path): DropPath()
      (norm2): LayerNorm((384,), eps=1e-05, elementwise_affine=True)
      (mlp): Mlp(
        (fc1): Linear(in_features=384, out_features=1536, bias=True)
        (act): GELU()
        (fc2): Linear(in_features=1536, out_features=384, bias=True)
        (drop): Dropout(p=0.0, inplace=False)
      )
    )
    (1): SwinTransformerBlock(
      (norm1): LayerNorm((384,), eps=1e-05, elementwise_affine=True)
      (attn): WindowAttention(
        (qkv): Linear(in_features=384, out_features=1152, bias=True)
        (attn_drop): Dropout(p=0.0, inplace=False)
        (proj): Linear(in_features=384, out_features=384, bias=True)
        (proj_drop): Dropout(p=0.0, inplace=False)
        (softmax): Softmax(dim=-1)
      )
      (drop_path): DropPath()
      (norm2): LayerNorm((384,), eps=1e-05, elementwise_affine=True)
      (mlp): Mlp(
        (fc1): Linear(in_features=384, out_features=1536, bias=True)
        (act): GELU()
        (fc2): Linear(in_features=1536, out_features=384, bias=True)
        (drop): Dropout(p=0.0, inplace=False)
      )
    )
    (2): SwinTransformerBlock(
      (norm1): LayerNorm((384,), eps=1e-05, elementwise_affine=True)
      (attn): WindowAttention(
        (qkv): Linear(in_features=384, out_features=1152, bias=True)
        (attn_drop): Dropout(p=0.0, inplace=False)
        (proj): Linear(in_features=384, out_features=384, bias=True)
        (proj_drop): Dropout(p=0.0, inplace=False)
        (softmax): Softmax(dim=-1)
      )
      (drop_path): DropPath()
      (norm2): LayerNorm((384,), eps=1e-05, elementwise_affine=True)
      (mlp): Mlp(
        (fc1): Linear(in_features=384, out_features=1536, bias=True)
        (act): GELU()
        (fc2): Linear(in_features=1536, out_features=384, bias=True)
        (drop): Dropout(p=0.0, inplace=False)
      )
    )
    (3): SwinTransformerBlock(
      (norm1): LayerNorm((384,), eps=1e-05, elementwise_affine=True)
      (attn): WindowAttention(
        (qkv): Linear(in_features=384, out_features=1152, bias=True)
        (attn_drop): Dropout(p=0.0, inplace=False)
        (proj): Linear(in_features=384, out_features=384, bias=True)
        (proj_drop): Dropout(p=0.0, inplace=False)
        (softmax): Softmax(dim=-1)
      )
      (drop_path): DropPath()
      (norm2): LayerNorm((384,), eps=1e-05, elementwise_affine=True)
      (mlp): Mlp(
        (fc1): Linear(in_features=384, out_features=1536, bias=True)
        (act): GELU()
        (fc2): Linear(in_features=1536, out_features=384, bias=True)
        (drop): Dropout(p=0.0, inplace=False)
      )
    )
    (4): SwinTransformerBlock(
      (norm1): LayerNorm((384,), eps=1e-05, elementwise_affine=True)
      (attn): WindowAttention(
        (qkv): Linear(in_features=384, out_features=1152, bias=True)
        (attn_drop): Dropout(p=0.0, inplace=False)
        (proj): Linear(in_features=384, out_features=384, bias=True)
        (proj_drop): Dropout(p=0.0, inplace=False)
        (softmax): Softmax(dim=-1)
      )
      (drop_path): DropPath()
      (norm2): LayerNorm((384,), eps=1e-05, elementwise_affine=True)
      (mlp): Mlp(
        (fc1): Linear(in_features=384, out_features=1536, bias=True)
        (act): GELU()
        (fc2): Linear(in_features=1536, out_features=384, bias=True)
        (drop): Dropout(p=0.0, inplace=False)
      )
    )
    (5): SwinTransformerBlock(
      (norm1): LayerNorm((384,), eps=1e-05, elementwise_affine=True)
      (attn): WindowAttention(
        (qkv): Linear(in_features=384, out_features=1152, bias=True)
        (attn_drop): Dropout(p=0.0, inplace=False)
        (proj): Linear(in_features=384, out_features=384, bias=True)
        (proj_drop): Dropout(p=0.0, inplace=False)
        (softmax): Softmax(dim=-1)
      )
      (drop_path): DropPath()
      (norm2): LayerNorm((384,), eps=1e-05, elementwise_affine=True)
      (mlp): Mlp(
        (fc1): Linear(in_features=384, out_features=1536, bias=True)
        (act): GELU()
        (fc2): Linear(in_features=1536, out_features=384, bias=True)
        (drop): Dropout(p=0.0, inplace=False)
      )
    )
  )
  (downsample): PatchMerging(
    (reduction): Linear(in_features=1536, out_features=768, bias=False)
    (norm): LayerNorm((1536,), eps=1e-05, elementwise_affine=True)
  )
)
--------------------------------------------------
3 BasicLayer(
  (blocks): ModuleList(
    (0): SwinTransformerBlock(
      (norm1): LayerNorm((768,), eps=1e-05, elementwise_affine=True)
      (attn): WindowAttention(
        (qkv): Linear(in_features=768, out_features=2304, bias=True)
        (attn_drop): Dropout(p=0.0, inplace=False)
        (proj): Linear(in_features=768, out_features=768, bias=True)
        (proj_drop): Dropout(p=0.0, inplace=False)
        (softmax): Softmax(dim=-1)
      )
      (drop_path): DropPath()
      (norm2): LayerNorm((768,), eps=1e-05, elementwise_affine=True)
      (mlp): Mlp(
        (fc1): Linear(in_features=768, out_features=3072, bias=True)
        (act): GELU()
        (fc2): Linear(in_features=3072, out_features=768, bias=True)
        (drop): Dropout(p=0.0, inplace=False)
      )
    )
    (1): SwinTransformerBlock(
      (norm1): LayerNorm((768,), eps=1e-05, elementwise_affine=True)
      (attn): WindowAttention(
        (qkv): Linear(in_features=768, out_features=2304, bias=True)
        (attn_drop): Dropout(p=0.0, inplace=False)
        (proj): Linear(in_features=768, out_features=768, bias=True)
        (proj_drop): Dropout(p=0.0, inplace=False)
        (softmax): Softmax(dim=-1)
      )
      (drop_path): DropPath()
      (norm2): LayerNorm((768,), eps=1e-05, elementwise_affine=True)
      (mlp): Mlp(
        (fc1): Linear(in_features=768, out_features=3072, bias=True)
        (act): GELU()
        (fc2): Linear(in_features=3072, out_features=768, bias=True)
        (drop): Dropout(p=0.0, inplace=False)
      )
    )
  )
)
torch.Size([4, 256, 100, 100])
torch.Size([4, 512, 50, 50])
torch.Size([4, 1024, 25, 25])
torch.Size([4, 512, 25, 25])
torch.Size([4, 512, 50, 50])
coco_CSPDarknet-s_640x640| train: total_epoch[1/300] total_batch[1/9000] batch[1/30] |size: 4x3x800x800 |lr: 0.00000003 |Tot: 0:00:05 |ETA: 0:00:00 |loss 17.2453 |conf_loss 10.8684 |cls_loss 1.6196 |iou_loss 4.7573 |num_fg 0.9883 |Data 2.052s |Batch 5.220s
xxxxxxxxxxxx: torch.Size([4, 3, 800, 800])
xxxxx:projjjjjjjjjjjjj: torch.Size([4, 96, 200, 200])
flatten: torch.Size([4, 40000, 96])
pos_drop: torch.Size([4, 40000, 96])
--------------------------------------------------
0 BasicLayer(
  (blocks): ModuleList(
    (0): SwinTransformerBlock(
      (norm1): LayerNorm((96,), eps=1e-05, elementwise_affine=True)
      (attn): WindowAttention(
        (qkv): Linear(in_features=96, out_features=288, bias=True)
        (attn_drop): Dropout(p=0.0, inplace=False)
        (proj): Linear(in_features=96, out_features=96, bias=True)
        (proj_drop): Dropout(p=0.0, inplace=False)
        (softmax): Softmax(dim=-1)
      )
      (drop_path): Identity()
      (norm2): LayerNorm((96,), eps=1e-05, elementwise_affine=True)
      (mlp): Mlp(
        (fc1): Linear(in_features=96, out_features=384, bias=True)
        (act): GELU()
        (fc2): Linear(in_features=384, out_features=96, bias=True)
        (drop): Dropout(p=0.0, inplace=False)
      )
    )
    (1): SwinTransformerBlock(
      (norm1): LayerNorm((96,), eps=1e-05, elementwise_affine=True)
      (attn): WindowAttention(
        (qkv): Linear(in_features=96, out_features=288, bias=True)
        (attn_drop): Dropout(p=0.0, inplace=False)
        (proj): Linear(in_features=96, out_features=96, bias=True)
        (proj_drop): Dropout(p=0.0, inplace=False)
        (softmax): Softmax(dim=-1)
      )
      (drop_path): DropPath()
      (norm2): LayerNorm((96,), eps=1e-05, elementwise_affine=True)
      (mlp): Mlp(
        (fc1): Linear(in_features=96, out_features=384, bias=True)
        (act): GELU()
        (fc2): Linear(in_features=384, out_features=96, bias=True)
        (drop): Dropout(p=0.0, inplace=False)
      )
    )
  )
  (downsample): PatchMerging(
    (reduction): Linear(in_features=384, out_features=192, bias=False)
    (norm): LayerNorm((384,), eps=1e-05, elementwise_affine=True)
  )
)
--------------------------------------------------
1 BasicLayer(
  (blocks): ModuleList(
    (0): SwinTransformerBlock(
      (norm1): LayerNorm((192,), eps=1e-05, elementwise_affine=True)
      (attn): WindowAttention(
        (qkv): Linear(in_features=192, out_features=576, bias=True)
        (attn_drop): Dropout(p=0.0, inplace=False)
        (proj): Linear(in_features=192, out_features=192, bias=True)
        (proj_drop): Dropout(p=0.0, inplace=False)
        (softmax): Softmax(dim=-1)
      )
      (drop_path): DropPath()
      (norm2): LayerNorm((192,), eps=1e-05, elementwise_affine=True)
      (mlp): Mlp(
        (fc1): Linear(in_features=192, out_features=768, bias=True)
        (act): GELU()
        (fc2): Linear(in_features=768, out_features=192, bias=True)
        (drop): Dropout(p=0.0, inplace=False)
      )
    )
    (1): SwinTransformerBlock(
      (norm1): LayerNorm((192,), eps=1e-05, elementwise_affine=True)
      (attn): WindowAttention(
        (qkv): Linear(in_features=192, out_features=576, bias=True)
        (attn_drop): Dropout(p=0.0, inplace=False)
        (proj): Linear(in_features=192, out_features=192, bias=True)
        (proj_drop): Dropout(p=0.0, inplace=False)
        (softmax): Softmax(dim=-1)
      )
      (drop_path): DropPath()
      (norm2): LayerNorm((192,), eps=1e-05, elementwise_affine=True)
      (mlp): Mlp(
        (fc1): Linear(in_features=192, out_features=768, bias=True)
        (act): GELU()
        (fc2): Linear(in_features=768, out_features=192, bias=True)
        (drop): Dropout(p=0.0, inplace=False)
      )
    )
  )
  (downsample): PatchMerging(
    (reduction): Linear(in_features=768, out_features=384, bias=False)
    (norm): LayerNorm((768,), eps=1e-05, elementwise_affine=True)
  )
)
--------------------------------------------------
2 BasicLayer(
  (blocks): ModuleList(
    (0): SwinTransformerBlock(
      (norm1): LayerNorm((384,), eps=1e-05, elementwise_affine=True)
      (attn): WindowAttention(
        (qkv): Linear(in_features=384, out_features=1152, bias=True)
        (attn_drop): Dropout(p=0.0, inplace=False)
        (proj): Linear(in_features=384, out_features=384, bias=True)
        (proj_drop): Dropout(p=0.0, inplace=False)
        (softmax): Softmax(dim=-1)
      )
      (drop_path): DropPath()
      (norm2): LayerNorm((384,), eps=1e-05, elementwise_affine=True)
      (mlp): Mlp(
        (fc1): Linear(in_features=384, out_features=1536, bias=True)
        (act): GELU()
        (fc2): Linear(in_features=1536, out_features=384, bias=True)
        (drop): Dropout(p=0.0, inplace=False)
      )
    )
    (1): SwinTransformerBlock(
      (norm1): LayerNorm((384,), eps=1e-05, elementwise_affine=True)
      (attn): WindowAttention(
        (qkv): Linear(in_features=384, out_features=1152, bias=True)
        (attn_drop): Dropout(p=0.0, inplace=False)
        (proj): Linear(in_features=384, out_features=384, bias=True)
        (proj_drop): Dropout(p=0.0, inplace=False)
        (softmax): Softmax(dim=-1)
      )
      (drop_path): DropPath()
      (norm2): LayerNorm((384,), eps=1e-05, elementwise_affine=True)
      (mlp): Mlp(
        (fc1): Linear(in_features=384, out_features=1536, bias=True)
        (act): GELU()
        (fc2): Linear(in_features=1536, out_features=384, bias=True)
        (drop): Dropout(p=0.0, inplace=False)
      )
    )
    (2): SwinTransformerBlock(
      (norm1): LayerNorm((384,), eps=1e-05, elementwise_affine=True)
      (attn): WindowAttention(
        (qkv): Linear(in_features=384, out_features=1152, bias=True)
        (attn_drop): Dropout(p=0.0, inplace=False)
        (proj): Linear(in_features=384, out_features=384, bias=True)
        (proj_drop): Dropout(p=0.0, inplace=False)
        (softmax): Softmax(dim=-1)
      )
      (drop_path): DropPath()
      (norm2): LayerNorm((384,), eps=1e-05, elementwise_affine=True)
      (mlp): Mlp(
        (fc1): Linear(in_features=384, out_features=1536, bias=True)
        (act): GELU()
        (fc2): Linear(in_features=1536, out_features=384, bias=True)
        (drop): Dropout(p=0.0, inplace=False)
      )
    )
    (3): SwinTransformerBlock(
      (norm1): LayerNorm((384,), eps=1e-05, elementwise_affine=True)
      (attn): WindowAttention(
        (qkv): Linear(in_features=384, out_features=1152, bias=True)
        (attn_drop): Dropout(p=0.0, inplace=False)
        (proj): Linear(in_features=384, out_features=384, bias=True)
        (proj_drop): Dropout(p=0.0, inplace=False)
        (softmax): Softmax(dim=-1)
      )
      (drop_path): DropPath()
      (norm2): LayerNorm((384,), eps=1e-05, elementwise_affine=True)
      (mlp): Mlp(
        (fc1): Linear(in_features=384, out_features=1536, bias=True)
        (act): GELU()
        (fc2): Linear(in_features=1536, out_features=384, bias=True)
        (drop): Dropout(p=0.0, inplace=False)
      )
    )
    (4): SwinTransformerBlock(
      (norm1): LayerNorm((384,), eps=1e-05, elementwise_affine=True)
      (attn): WindowAttention(
        (qkv): Linear(in_features=384, out_features=1152, bias=True)
        (attn_drop): Dropout(p=0.0, inplace=False)
        (proj): Linear(in_features=384, out_features=384, bias=True)
        (proj_drop): Dropout(p=0.0, inplace=False)
        (softmax): Softmax(dim=-1)
      )
      (drop_path): DropPath()
      (norm2): LayerNorm((384,), eps=1e-05, elementwise_affine=True)
      (mlp): Mlp(
        (fc1): Linear(in_features=384, out_features=1536, bias=True)
        (act): GELU()
        (fc2): Linear(in_features=1536, out_features=384, bias=True)
        (drop): Dropout(p=0.0, inplace=False)
      )
    )
    (5): SwinTransformerBlock(
      (norm1): LayerNorm((384,), eps=1e-05, elementwise_affine=True)
      (attn): WindowAttention(
        (qkv): Linear(in_features=384, out_features=1152, bias=True)
        (attn_drop): Dropout(p=0.0, inplace=False)
        (proj): Linear(in_features=384, out_features=384, bias=True)
        (proj_drop): Dropout(p=0.0, inplace=False)
        (softmax): Softmax(dim=-1)
      )
      (drop_path): DropPath()
      (norm2): LayerNorm((384,), eps=1e-05, elementwise_affine=True)
      (mlp): Mlp(
        (fc1): Linear(in_features=384, out_features=1536, bias=True)
        (act): GELU()
        (fc2): Linear(in_features=1536, out_features=384, bias=True)
        (drop): Dropout(p=0.0, inplace=False)
      )
    )
  )
  (downsample): PatchMerging(
    (reduction): Linear(in_features=1536, out_features=768, bias=False)
    (norm): LayerNorm((1536,), eps=1e-05, elementwise_affine=True)
  )
)
--------------------------------------------------
3 BasicLayer(
  (blocks): ModuleList(
    (0): SwinTransformerBlock(
      (norm1): LayerNorm((768,), eps=1e-05, elementwise_affine=True)
      (attn): WindowAttention(
        (qkv): Linear(in_features=768, out_features=2304, bias=True)
        (attn_drop): Dropout(p=0.0, inplace=False)
        (proj): Linear(in_features=768, out_features=768, bias=True)
        (proj_drop): Dropout(p=0.0, inplace=False)
        (softmax): Softmax(dim=-1)
      )
      (drop_path): DropPath()
      (norm2): LayerNorm((768,), eps=1e-05, elementwise_affine=True)
      (mlp): Mlp(
        (fc1): Linear(in_features=768, out_features=3072, bias=True)
        (act): GELU()
        (fc2): Linear(in_features=3072, out_features=768, bias=True)
        (drop): Dropout(p=0.0, inplace=False)
      )
    )
    (1): SwinTransformerBlock(
      (norm1): LayerNorm((768,), eps=1e-05, elementwise_affine=True)
      (attn): WindowAttention(
        (qkv): Linear(in_features=768, out_features=2304, bias=True)
        (attn_drop): Dropout(p=0.0, inplace=False)
        (proj): Linear(in_features=768, out_features=768, bias=True)
        (proj_drop): Dropout(p=0.0, inplace=False)
        (softmax): Softmax(dim=-1)
      )
      (drop_path): DropPath()
      (norm2): LayerNorm((768,), eps=1e-05, elementwise_affine=True)
      (mlp): Mlp(
        (fc1): Linear(in_features=768, out_features=3072, bias=True)
        (act): GELU()
        (fc2): Linear(in_features=3072, out_features=768, bias=True)
        (drop): Dropout(p=0.0, inplace=False)
      )
    )
  )
)
torch.Size([4, 256, 100, 100])
torch.Size([4, 512, 50, 50])
torch.Size([4, 1024, 25, 25])
torch.Size([4, 512, 25, 25])
torch.Size([4, 512, 50, 50])
coco_CSPDarknet-s_640x640| train: total_epoch[1/300] total_batch[2/9000] batch[2/30] |size: 4x3x800x800 |lr: 0.00000011 |Tot: 0:00:05 |ETA: 0:02:32 |loss 17.7914 |conf_loss 11.4441 |cls_loss 1.5567 |iou_loss 4.7906 |num_fg 0.9612 |Data 0.002s |Batch 0.368s
xxxxxxxxxxxx: torch.Size([4, 3, 800, 800])
xxxxx:projjjjjjjjjjjjj: torch.Size([4, 96, 200, 200])
flatten: torch.Size([4, 40000, 96])
pos_drop: torch.Size([4, 40000, 96])
--------------------------------------------------
0 BasicLayer(
  (blocks): ModuleList(
    (0): SwinTransformerBlock(
      (norm1): LayerNorm((96,), eps=1e-05, elementwise_affine=True)
      (attn): WindowAttention(
        (qkv): Linear(in_features=96, out_features=288, bias=True)
        (attn_drop): Dropout(p=0.0, inplace=False)
        (proj): Linear(in_features=96, out_features=96, bias=True)
        (proj_drop): Dropout(p=0.0, inplace=False)
        (softmax): Softmax(dim=-1)
      )
      (drop_path): Identity()
      (norm2): LayerNorm((96,), eps=1e-05, elementwise_affine=True)
      (mlp): Mlp(
        (fc1): Linear(in_features=96, out_features=384, bias=True)
        (act): GELU()
        (fc2): Linear(in_features=384, out_features=96, bias=True)
        (drop): Dropout(p=0.0, inplace=False)
      )
    )
    (1): SwinTransformerBlock(
      (norm1): LayerNorm((96,), eps=1e-05, elementwise_affine=True)
      (attn): WindowAttention(
        (qkv): Linear(in_features=96, out_features=288, bias=True)
        (attn_drop): Dropout(p=0.0, inplace=False)
        (proj): Linear(in_features=96, out_features=96, bias=True)
        (proj_drop): Dropout(p=0.0, inplace=False)
        (softmax): Softmax(dim=-1)
      )
      (drop_path): DropPath()
      (norm2): LayerNorm((96,), eps=1e-05, elementwise_affine=True)
      (mlp): Mlp(
        (fc1): Linear(in_features=96, out_features=384, bias=True)
        (act): GELU()
        (fc2): Linear(in_features=384, out_features=96, bias=True)
        (drop): Dropout(p=0.0, inplace=False)
      )
    )
  )
  (downsample): PatchMerging(
    (reduction): Linear(in_features=384, out_features=192, bias=False)
    (norm): LayerNorm((384,), eps=1e-05, elementwise_affine=True)
  )
)
--------------------------------------------------
1 BasicLayer(
  (blocks): ModuleList(
    (0): SwinTransformerBlock(
      (norm1): LayerNorm((192,), eps=1e-05, elementwise_affine=True)
      (attn): WindowAttention(
        (qkv): Linear(in_features=192, out_features=576, bias=True)
        (attn_drop): Dropout(p=0.0, inplace=False)
        (proj): Linear(in_features=192, out_features=192, bias=True)
        (proj_drop): Dropout(p=0.0, inplace=False)
        (softmax): Softmax(dim=-1)
      )
      (drop_path): DropPath()
      (norm2): LayerNorm((192,), eps=1e-05, elementwise_affine=True)
      (mlp): Mlp(
        (fc1): Linear(in_features=192, out_features=768, bias=True)
        (act): GELU()
        (fc2): Linear(in_features=768, out_features=192, bias=True)
        (drop): Dropout(p=0.0, inplace=False)
      )
    )
    (1): SwinTransformerBlock(
      (norm1): LayerNorm((192,), eps=1e-05, elementwise_affine=True)
      (attn): WindowAttention(
        (qkv): Linear(in_features=192, out_features=576, bias=True)
        (attn_drop): Dropout(p=0.0, inplace=False)
        (proj): Linear(in_features=192, out_features=192, bias=True)
        (proj_drop): Dropout(p=0.0, inplace=False)
        (softmax): Softmax(dim=-1)
      )
      (drop_path): DropPath()
      (norm2): LayerNorm((192,), eps=1e-05, elementwise_affine=True)
      (mlp): Mlp(
        (fc1): Linear(in_features=192, out_features=768, bias=True)
        (act): GELU()
        (fc2): Linear(in_features=768, out_features=192, bias=True)
        (drop): Dropout(p=0.0, inplace=False)
      )
    )
  )
  (downsample): PatchMerging(
    (reduction): Linear(in_features=768, out_features=384, bias=False)
    (norm): LayerNorm((768,), eps=1e-05, elementwise_affine=True)
  )
)
--------------------------------------------------
2 BasicLayer(
  (blocks): ModuleList(
    (0): SwinTransformerBlock(
      (norm1): LayerNorm((384,), eps=1e-05, elementwise_affine=True)
      (attn): WindowAttention(
        (qkv): Linear(in_features=384, out_features=1152, bias=True)
        (attn_drop): Dropout(p=0.0, inplace=False)
        (proj): Linear(in_features=384, out_features=384, bias=True)
        (proj_drop): Dropout(p=0.0, inplace=False)
        (softmax): Softmax(dim=-1)
      )
      (drop_path): DropPath()
      (norm2): LayerNorm((384,), eps=1e-05, elementwise_affine=True)
      (mlp): Mlp(
        (fc1): Linear(in_features=384, out_features=1536, bias=True)
        (act): GELU()
        (fc2): Linear(in_features=1536, out_features=384, bias=True)
        (drop): Dropout(p=0.0, inplace=False)
      )
    )
    (1): SwinTransformerBlock(
      (norm1): LayerNorm((384,), eps=1e-05, elementwise_affine=True)
      (attn): WindowAttention(
        (qkv): Linear(in_features=384, out_features=1152, bias=True)
        (attn_drop): Dropout(p=0.0, inplace=False)
        (proj): Linear(in_features=384, out_features=384, bias=True)
        (proj_drop): Dropout(p=0.0, inplace=False)
        (softmax): Softmax(dim=-1)
      )
      (drop_path): DropPath()
      (norm2): LayerNorm((384,), eps=1e-05, elementwise_affine=True)
      (mlp): Mlp(
        (fc1): Linear(in_features=384, out_features=1536, bias=True)
        (act): GELU()
        (fc2): Linear(in_features=1536, out_features=384, bias=True)
        (drop): Dropout(p=0.0, inplace=False)
      )
    )
    (2): SwinTransformerBlock(
      (norm1): LayerNorm((384,), eps=1e-05, elementwise_affine=True)
      (attn): WindowAttention(
        (qkv): Linear(in_features=384, out_features=1152, bias=True)
        (attn_drop): Dropout(p=0.0, inplace=False)
        (proj): Linear(in_features=384, out_features=384, bias=True)
        (proj_drop): Dropout(p=0.0, inplace=False)
        (softmax): Softmax(dim=-1)
      )
      (drop_path): DropPath()
      (norm2): LayerNorm((384,), eps=1e-05, elementwise_affine=True)
      (mlp): Mlp(
        (fc1): Linear(in_features=384, out_features=1536, bias=True)
        (act): GELU()
        (fc2): Linear(in_features=1536, out_features=384, bias=True)
        (drop): Dropout(p=0.0, inplace=False)
      )
    )
    (3): SwinTransformerBlock(
      (norm1): LayerNorm((384,), eps=1e-05, elementwise_affine=True)
      (attn): WindowAttention(
        (qkv): Linear(in_features=384, out_features=1152, bias=True)
        (attn_drop): Dropout(p=0.0, inplace=False)
        (proj): Linear(in_features=384, out_features=384, bias=True)
        (proj_drop): Dropout(p=0.0, inplace=False)
        (softmax): Softmax(dim=-1)
      )
      (drop_path): DropPath()
      (norm2): LayerNorm((384,), eps=1e-05, elementwise_affine=True)
      (mlp): Mlp(
        (fc1): Linear(in_features=384, out_features=1536, bias=True)
        (act): GELU()
        (fc2): Linear(in_features=1536, out_features=384, bias=True)
        (drop): Dropout(p=0.0, inplace=False)
      )
    )
    (4): SwinTransformerBlock(
      (norm1): LayerNorm((384,), eps=1e-05, elementwise_affine=True)
      (attn): WindowAttention(
        (qkv): Linear(in_features=384, out_features=1152, bias=True)
        (attn_drop): Dropout(p=0.0, inplace=False)
        (proj): Linear(in_features=384, out_features=384, bias=True)
        (proj_drop): Dropout(p=0.0, inplace=False)
        (softmax): Softmax(dim=-1)
      )
      (drop_path): DropPath()
      (norm2): LayerNorm((384,), eps=1e-05, elementwise_affine=True)
      (mlp): Mlp(
        (fc1): Linear(in_features=384, out_features=1536, bias=True)
        (act): GELU()
        (fc2): Linear(in_features=1536, out_features=384, bias=True)
        (drop): Dropout(p=0.0, inplace=False)
      )
    )
    (5): SwinTransformerBlock(
      (norm1): LayerNorm((384,), eps=1e-05, elementwise_affine=True)
      (attn): WindowAttention(
        (qkv): Linear(in_features=384, out_features=1152, bias=True)
        (attn_drop): Dropout(p=0.0, inplace=False)
        (proj): Linear(in_features=384, out_features=384, bias=True)
        (proj_drop): Dropout(p=0.0, inplace=False)
        (softmax): Softmax(dim=-1)
      )
      (drop_path): DropPath()
      (norm2): LayerNorm((384,), eps=1e-05, elementwise_affine=True)
      (mlp): Mlp(
        (fc1): Linear(in_features=384, out_features=1536, bias=True)
        (act): GELU()
        (fc2): Linear(in_features=1536, out_features=384, bias=True)
        (drop): Dropout(p=0.0, inplace=False)
      )
    )
  )
  (downsample): PatchMerging(
    (reduction): Linear(in_features=1536, out_features=768, bias=False)
    (norm): LayerNorm((1536,), eps=1e-05, elementwise_affine=True)
  )
)
--------------------------------------------------
3 BasicLayer(
  (blocks): ModuleList(
    (0): SwinTransformerBlock(
      (norm1): LayerNorm((768,), eps=1e-05, elementwise_affine=True)
      (attn): WindowAttention(
        (qkv): Linear(in_features=768, out_features=2304, bias=True)
        (attn_drop): Dropout(p=0.0, inplace=False)
        (proj): Linear(in_features=768, out_features=768, bias=True)
        (proj_drop): Dropout(p=0.0, inplace=False)
        (softmax): Softmax(dim=-1)
      )
      (drop_path): DropPath()
      (norm2): LayerNorm((768,), eps=1e-05, elementwise_affine=True)
      (mlp): Mlp(
        (fc1): Linear(in_features=768, out_features=3072, bias=True)
        (act): GELU()
        (fc2): Linear(in_features=3072, out_features=768, bias=True)
        (drop): Dropout(p=0.0, inplace=False)
      )
    )
    (1): SwinTransformerBlock(
      (norm1): LayerNorm((768,), eps=1e-05, elementwise_affine=True)
      (attn): WindowAttention(
        (qkv): Linear(in_features=768, out_features=2304, bias=True)
        (attn_drop): Dropout(p=0.0, inplace=False)
        (proj): Linear(in_features=768, out_features=768, bias=True)
        (proj_drop): Dropout(p=0.0, inplace=False)
        (softmax): Softmax(dim=-1)
      )
      (drop_path): DropPath()
      (norm2): LayerNorm((768,), eps=1e-05, elementwise_affine=True)
      (mlp): Mlp(
        (fc1): Linear(in_features=768, out_features=3072, bias=True)
        (act): GELU()
        (fc2): Linear(in_features=3072, out_features=768, bias=True)
        (drop): Dropout(p=0.0, inplace=False)
      )
    )
  )
)
torch.Size([4, 256, 100, 100])
torch.Size([4, 512, 50, 50])
torch.Size([4, 1024, 25, 25])
torch.Size([4, 512, 25, 25])
torch.Size([4, 512, 50, 50])
coco_CSPDarknet-s_640x640| train: total_epoch[1/300] total_batch[3/9000] batch[3/30] |size: 4x3x800x800 |lr: 0.00000025 |Tot: 0:00:06 |ETA: 0:01:19 |loss 18.5283 |conf_loss 12.1672 |cls_loss 1.5970 |iou_loss 4.7640 |num_fg 0.9800 |Data 0.001s |Batch 0.415s
xxxxxxxxxxxx: torch.Size([4, 3, 800, 800])
xxxxx:projjjjjjjjjjjjj: torch.Size([4, 96, 200, 200])
flatten: torch.Size([4, 40000, 96])
pos_drop: torch.Size([4, 40000, 96])
--------------------------------------------------
0 BasicLayer(
  (blocks): ModuleList(
    (0): SwinTransformerBlock(
      (norm1): LayerNorm((96,), eps=1e-05, elementwise_affine=True)
      (attn): WindowAttention(
        (qkv): Linear(in_features=96, out_features=288, bias=True)
        (attn_drop): Dropout(p=0.0, inplace=False)
        (proj): Linear(in_features=96, out_features=96, bias=True)
        (proj_drop): Dropout(p=0.0, inplace=False)
        (softmax): Softmax(dim=-1)
      )
      (drop_path): Identity()
      (norm2): LayerNorm((96,), eps=1e-05, elementwise_affine=True)
      (mlp): Mlp(
        (fc1): Linear(in_features=96, out_features=384, bias=True)
        (act): GELU()
        (fc2): Linear(in_features=384, out_features=96, bias=True)
        (drop): Dropout(p=0.0, inplace=False)
      )
    )
    (1): SwinTransformerBlock(
      (norm1): LayerNorm((96,), eps=1e-05, elementwise_affine=True)
      (attn): WindowAttention(
        (qkv): Linear(in_features=96, out_features=288, bias=True)
        (attn_drop): Dropout(p=0.0, inplace=False)
        (proj): Linear(in_features=96, out_features=96, bias=True)
        (proj_drop): Dropout(p=0.0, inplace=False)
        (softmax): Softmax(dim=-1)
      )
      (drop_path): DropPath()
      (norm2): LayerNorm((96,), eps=1e-05, elementwise_affine=True)
      (mlp): Mlp(
        (fc1): Linear(in_features=96, out_features=384, bias=True)
        (act): GELU()
        (fc2): Linear(in_features=384, out_features=96, bias=True)
        (drop): Dropout(p=0.0, inplace=False)
      )
    )
  )
  (downsample): PatchMerging(
    (reduction): Linear(in_features=384, out_features=192, bias=False)
    (norm): LayerNorm((384,), eps=1e-05, elementwise_affine=True)
  )
)
--------------------------------------------------
1 BasicLayer(
  (blocks): ModuleList(
    (0): SwinTransformerBlock(
      (norm1): LayerNorm((192,), eps=1e-05, elementwise_affine=True)
      (attn): WindowAttention(
        (qkv): Linear(in_features=192, out_features=576, bias=True)
        (attn_drop): Dropout(p=0.0, inplace=False)
        (proj): Linear(in_features=192, out_features=192, bias=True)
        (proj_drop): Dropout(p=0.0, inplace=False)
        (softmax): Softmax(dim=-1)
      )
      (drop_path): DropPath()
      (norm2): LayerNorm((192,), eps=1e-05, elementwise_affine=True)
      (mlp): Mlp(
        (fc1): Linear(in_features=192, out_features=768, bias=True)
        (act): GELU()
        (fc2): Linear(in_features=768, out_features=192, bias=True)
        (drop): Dropout(p=0.0, inplace=False)
      )
    )
    (1): SwinTransformerBlock(
      (norm1): LayerNorm((192,), eps=1e-05, elementwise_affine=True)
      (attn): WindowAttention(
        (qkv): Linear(in_features=192, out_features=576, bias=True)
        (attn_drop): Dropout(p=0.0, inplace=False)
        (proj): Linear(in_features=192, out_features=192, bias=True)
        (proj_drop): Dropout(p=0.0, inplace=False)
        (softmax): Softmax(dim=-1)
      )
      (drop_path): DropPath()
      (norm2): LayerNorm((192,), eps=1e-05, elementwise_affine=True)
      (mlp): Mlp(
        (fc1): Linear(in_features=192, out_features=768, bias=True)
        (act): GELU()
        (fc2): Linear(in_features=768, out_features=192, bias=True)
        (drop): Dropout(p=0.0, inplace=False)
      )
    )
  )
  (downsample): PatchMerging(
    (reduction): Linear(in_features=768, out_features=384, bias=False)
    (norm): LayerNorm((768,), eps=1e-05, elementwise_affine=True)
  )
)
--------------------------------------------------
2 BasicLayer(
  (blocks): ModuleList(
    (0): SwinTransformerBlock(
      (norm1): LayerNorm((384,), eps=1e-05, elementwise_affine=True)
      (attn): WindowAttention(
        (qkv): Linear(in_features=384, out_features=1152, bias=True)
        (attn_drop): Dropout(p=0.0, inplace=False)
        (proj): Linear(in_features=384, out_features=384, bias=True)
        (proj_drop): Dropout(p=0.0, inplace=False)
        (softmax): Softmax(dim=-1)
      )
      (drop_path): DropPath()
      (norm2): LayerNorm((384,), eps=1e-05, elementwise_affine=True)
      (mlp): Mlp(
        (fc1): Linear(in_features=384, out_features=1536, bias=True)
        (act): GELU()
        (fc2): Linear(in_features=1536, out_features=384, bias=True)
        (drop): Dropout(p=0.0, inplace=False)
      )
    )
    (1): SwinTransformerBlock(
      (norm1): LayerNorm((384,), eps=1e-05, elementwise_affine=True)
      (attn): WindowAttention(
        (qkv): Linear(in_features=384, out_features=1152, bias=True)
        (attn_drop): Dropout(p=0.0, inplace=False)
        (proj): Linear(in_features=384, out_features=384, bias=True)
        (proj_drop): Dropout(p=0.0, inplace=False)
        (softmax): Softmax(dim=-1)
      )
      (drop_path): DropPath()
      (norm2): LayerNorm((384,), eps=1e-05, elementwise_affine=True)
      (mlp): Mlp(
        (fc1): Linear(in_features=384, out_features=1536, bias=True)
        (act): GELU()
        (fc2): Linear(in_features=1536, out_features=384, bias=True)
        (drop): Dropout(p=0.0, inplace=False)
      )
    )
    (2): SwinTransformerBlock(
      (norm1): LayerNorm((384,), eps=1e-05, elementwise_affine=True)
      (attn): WindowAttention(
        (qkv): Linear(in_features=384, out_features=1152, bias=True)
        (attn_drop): Dropout(p=0.0, inplace=False)
        (proj): Linear(in_features=384, out_features=384, bias=True)
        (proj_drop): Dropout(p=0.0, inplace=False)
        (softmax): Softmax(dim=-1)
      )
      (drop_path): DropPath()
      (norm2): LayerNorm((384,), eps=1e-05, elementwise_affine=True)
      (mlp): Mlp(
        (fc1): Linear(in_features=384, out_features=1536, bias=True)
        (act): GELU()
        (fc2): Linear(in_features=1536, out_features=384, bias=True)
        (drop): Dropout(p=0.0, inplace=False)
      )
    )
    (3): SwinTransformerBlock(
      (norm1): LayerNorm((384,), eps=1e-05, elementwise_affine=True)
      (attn): WindowAttention(
        (qkv): Linear(in_features=384, out_features=1152, bias=True)
        (attn_drop): Dropout(p=0.0, inplace=False)
        (proj): Linear(in_features=384, out_features=384, bias=True)
        (proj_drop): Dropout(p=0.0, inplace=False)
        (softmax): Softmax(dim=-1)
      )
      (drop_path): DropPath()
      (norm2): LayerNorm((384,), eps=1e-05, elementwise_affine=True)
      (mlp): Mlp(
        (fc1): Linear(in_features=384, out_features=1536, bias=True)
        (act): GELU()
        (fc2): Linear(in_features=1536, out_features=384, bias=True)
        (drop): Dropout(p=0.0, inplace=False)
      )
    )
    (4): SwinTransformerBlock(
      (norm1): LayerNorm((384,), eps=1e-05, elementwise_affine=True)
      (attn): WindowAttention(
        (qkv): Linear(in_features=384, out_features=1152, bias=True)
        (attn_drop): Dropout(p=0.0, inplace=False)
        (proj): Linear(in_features=384, out_features=384, bias=True)
        (proj_drop): Dropout(p=0.0, inplace=False)
        (softmax): Softmax(dim=-1)
      )
      (drop_path): DropPath()
      (norm2): LayerNorm((384,), eps=1e-05, elementwise_affine=True)
      (mlp): Mlp(
        (fc1): Linear(in_features=384, out_features=1536, bias=True)
        (act): GELU()
        (fc2): Linear(in_features=1536, out_features=384, bias=True)
        (drop): Dropout(p=0.0, inplace=False)
      )
    )
    (5): SwinTransformerBlock(
      (norm1): LayerNorm((384,), eps=1e-05, elementwise_affine=True)
      (attn): WindowAttention(
        (qkv): Linear(in_features=384, out_features=1152, bias=True)
        (attn_drop): Dropout(p=0.0, inplace=False)
        (proj): Linear(in_features=384, out_features=384, bias=True)
        (proj_drop): Dropout(p=0.0, inplace=False)
        (softmax): Softmax(dim=-1)
      )
      (drop_path): DropPath()
      (norm2): LayerNorm((384,), eps=1e-05, elementwise_affine=True)
      (mlp): Mlp(
        (fc1): Linear(in_features=384, out_features=1536, bias=True)
        (act): GELU()
        (fc2): Linear(in_features=1536, out_features=384, bias=True)
        (drop): Dropout(p=0.0, inplace=False)
      )
    )
  )
  (downsample): PatchMerging(
    (reduction): Linear(in_features=1536, out_features=768, bias=False)
    (norm): LayerNorm((1536,), eps=1e-05, elementwise_affine=True)
  )
)
--------------------------------------------------
3 BasicLayer(
  (blocks): ModuleList(
    (0): SwinTransformerBlock(
      (norm1): LayerNorm((768,), eps=1e-05, elementwise_affine=True)
      (attn): WindowAttention(
        (qkv): Linear(in_features=768, out_features=2304, bias=True)
        (attn_drop): Dropout(p=0.0, inplace=False)
        (proj): Linear(in_features=768, out_features=768, bias=True)
        (proj_drop): Dropout(p=0.0, inplace=False)
        (softmax): Softmax(dim=-1)
      )
      (drop_path): DropPath()
      (norm2): LayerNorm((768,), eps=1e-05, elementwise_affine=True)
      (mlp): Mlp(
        (fc1): Linear(in_features=768, out_features=3072, bias=True)
        (act): GELU()
        (fc2): Linear(in_features=3072, out_features=768, bias=True)
        (drop): Dropout(p=0.0, inplace=False)
      )
    )
    (1): SwinTransformerBlock(
      (norm1): LayerNorm((768,), eps=1e-05, elementwise_affine=True)
      (attn): WindowAttention(
        (qkv): Linear(in_features=768, out_features=2304, bias=True)
        (attn_drop): Dropout(p=0.0, inplace=False)
        (proj): Linear(in_features=768, out_features=768, bias=True)
        (proj_drop): Dropout(p=0.0, inplace=False)
        (softmax): Softmax(dim=-1)
      )
      (drop_path): DropPath()
      (norm2): LayerNorm((768,), eps=1e-05, elementwise_affine=True)
      (mlp): Mlp(
        (fc1): Linear(in_features=768, out_features=3072, bias=True)
        (act): GELU()
        (fc2): Linear(in_features=3072, out_features=768, bias=True)
        (drop): Dropout(p=0.0, inplace=False)
      )
    )
  )
)
torch.Size([4, 256, 100, 100])
torch.Size([4, 512, 50, 50])
torch.Size([4, 1024, 25, 25])
torch.Size([4, 512, 25, 25])
torch.Size([4, 512, 50, 50])
coco_CSPDarknet-s_640x640| train: total_epoch[1/300] total_batch[4/9000] batch[4/30] |size: 4x3x800x800 |lr: 0.00000044 |Tot: 0:00:06 |ETA: 0:00:55 |loss 18.7363 |conf_loss 12.3804 |cls_loss 1.5999 |iou_loss 4.7560 |num_fg 0.9663 |Data 0.270s |Batch 0.689s
xxxxxxxxxxxx: torch.Size([4, 3, 800, 800])
xxxxx:projjjjjjjjjjjjj: torch.Size([4, 96, 200, 200])
flatten: torch.Size([4, 40000, 96])
pos_drop: torch.Size([4, 40000, 96])
--------------------------------------------------
0 BasicLayer(
  (blocks): ModuleList(
    (0): SwinTransformerBlock(
      (norm1): LayerNorm((96,), eps=1e-05, elementwise_affine=True)
      (attn): WindowAttention(
        (qkv): Linear(in_features=96, out_features=288, bias=True)
        (attn_drop): Dropout(p=0.0, inplace=False)
        (proj): Linear(in_features=96, out_features=96, bias=True)
        (proj_drop): Dropout(p=0.0, inplace=False)
        (softmax): Softmax(dim=-1)
      )
      (drop_path): Identity()
      (norm2): LayerNorm((96,), eps=1e-05, elementwise_affine=True)
      (mlp): Mlp(
        (fc1): Linear(in_features=96, out_features=384, bias=True)
        (act): GELU()
        (fc2): Linear(in_features=384, out_features=96, bias=True)
        (drop): Dropout(p=0.0, inplace=False)
      )
    )
    (1): SwinTransformerBlock(
      (norm1): LayerNorm((96,), eps=1e-05, elementwise_affine=True)
      (attn): WindowAttention(
        (qkv): Linear(in_features=96, out_features=288, bias=True)
        (attn_drop): Dropout(p=0.0, inplace=False)
        (proj): Linear(in_features=96, out_features=96, bias=True)
        (proj_drop): Dropout(p=0.0, inplace=False)
        (softmax): Softmax(dim=-1)
      )
      (drop_path): DropPath()
      (norm2): LayerNorm((96,), eps=1e-05, elementwise_affine=True)
      (mlp): Mlp(
        (fc1): Linear(in_features=96, out_features=384, bias=True)
        (act): GELU()
        (fc2): Linear(in_features=384, out_features=96, bias=True)
        (drop): Dropout(p=0.0, inplace=False)
      )
    )
  )
  (downsample): PatchMerging(
    (reduction): Linear(in_features=384, out_features=192, bias=False)
    (norm): LayerNorm((384,), eps=1e-05, elementwise_affine=True)
  )
)
--------------------------------------------------
1 BasicLayer(
  (blocks): ModuleList(
    (0): SwinTransformerBlock(
      (norm1): LayerNorm((192,), eps=1e-05, elementwise_affine=True)
      (attn): WindowAttention(
        (qkv): Linear(in_features=192, out_features=576, bias=True)
        (attn_drop): Dropout(p=0.0, inplace=False)
        (proj): Linear(in_features=192, out_features=192, bias=True)
        (proj_drop): Dropout(p=0.0, inplace=False)
        (softmax): Softmax(dim=-1)
      )
      (drop_path): DropPath()
      (norm2): LayerNorm((192,), eps=1e-05, elementwise_affine=True)
      (mlp): Mlp(
        (fc1): Linear(in_features=192, out_features=768, bias=True)
        (act): GELU()
        (fc2): Linear(in_features=768, out_features=192, bias=True)
        (drop): Dropout(p=0.0, inplace=False)
      )
    )
    (1): SwinTransformerBlock(
      (norm1): LayerNorm((192,), eps=1e-05, elementwise_affine=True)
      (attn): WindowAttention(
        (qkv): Linear(in_features=192, out_features=576, bias=True)
        (attn_drop): Dropout(p=0.0, inplace=False)
        (proj): Linear(in_features=192, out_features=192, bias=True)
        (proj_drop): Dropout(p=0.0, inplace=False)
        (softmax): Softmax(dim=-1)
      )
      (drop_path): DropPath()
      (norm2): LayerNorm((192,), eps=1e-05, elementwise_affine=True)
      (mlp): Mlp(
        (fc1): Linear(in_features=192, out_features=768, bias=True)
        (act): GELU()
        (fc2): Linear(in_features=768, out_features=192, bias=True)
        (drop): Dropout(p=0.0, inplace=False)
      )
    )
  )
  (downsample): PatchMerging(
    (reduction): Linear(in_features=768, out_features=384, bias=False)
    (norm): LayerNorm((768,), eps=1e-05, elementwise_affine=True)
  )
)
--------------------------------------------------
2 BasicLayer(
  (blocks): ModuleList(
    (0): SwinTransformerBlock(
      (norm1): LayerNorm((384,), eps=1e-05, elementwise_affine=True)
      (attn): WindowAttention(
        (qkv): Linear(in_features=384, out_features=1152, bias=True)
        (attn_drop): Dropout(p=0.0, inplace=False)
        (proj): Linear(in_features=384, out_features=384, bias=True)
        (proj_drop): Dropout(p=0.0, inplace=False)
        (softmax): Softmax(dim=-1)
      )
      (drop_path): DropPath()
      (norm2): LayerNorm((384,), eps=1e-05, elementwise_affine=True)
      (mlp): Mlp(
        (fc1): Linear(in_features=384, out_features=1536, bias=True)
        (act): GELU()
        (fc2): Linear(in_features=1536, out_features=384, bias=True)
        (drop): Dropout(p=0.0, inplace=False)
      )
    )
    (1): SwinTransformerBlock(
      (norm1): LayerNorm((384,), eps=1e-05, elementwise_affine=True)
      (attn): WindowAttention(
        (qkv): Linear(in_features=384, out_features=1152, bias=True)
        (attn_drop): Dropout(p=0.0, inplace=False)
        (proj): Linear(in_features=384, out_features=384, bias=True)
        (proj_drop): Dropout(p=0.0, inplace=False)
        (softmax): Softmax(dim=-1)
      )
      (drop_path): DropPath()
      (norm2): LayerNorm((384,), eps=1e-05, elementwise_affine=True)
      (mlp): Mlp(
        (fc1): Linear(in_features=384, out_features=1536, bias=True)
        (act): GELU()
        (fc2): Linear(in_features=1536, out_features=384, bias=True)
        (drop): Dropout(p=0.0, inplace=False)
      )
    )
    (2): SwinTransformerBlock(
      (norm1): LayerNorm((384,), eps=1e-05, elementwise_affine=True)
      (attn): WindowAttention(
        (qkv): Linear(in_features=384, out_features=1152, bias=True)
        (attn_drop): Dropout(p=0.0, inplace=False)
        (proj): Linear(in_features=384, out_features=384, bias=True)
        (proj_drop): Dropout(p=0.0, inplace=False)
        (softmax): Softmax(dim=-1)
      )
      (drop_path): DropPath()
      (norm2): LayerNorm((384,), eps=1e-05, elementwise_affine=True)
      (mlp): Mlp(
        (fc1): Linear(in_features=384, out_features=1536, bias=True)
        (act): GELU()
        (fc2): Linear(in_features=1536, out_features=384, bias=True)
        (drop): Dropout(p=0.0, inplace=False)
      )
    )
    (3): SwinTransformerBlock(
      (norm1): LayerNorm((384,), eps=1e-05, elementwise_affine=True)
      (attn): WindowAttention(
        (qkv): Linear(in_features=384, out_features=1152, bias=True)
        (attn_drop): Dropout(p=0.0, inplace=False)
        (proj): Linear(in_features=384, out_features=384, bias=True)
        (proj_drop): Dropout(p=0.0, inplace=False)
        (softmax): Softmax(dim=-1)
      )
      (drop_path): DropPath()
      (norm2): LayerNorm((384,), eps=1e-05, elementwise_affine=True)
      (mlp): Mlp(
        (fc1): Linear(in_features=384, out_features=1536, bias=True)
        (act): GELU()
        (fc2): Linear(in_features=1536, out_features=384, bias=True)
        (drop): Dropout(p=0.0, inplace=False)
      )
    )
    (4): SwinTransformerBlock(
      (norm1): LayerNorm((384,), eps=1e-05, elementwise_affine=True)
      (attn): WindowAttention(
        (qkv): Linear(in_features=384, out_features=1152, bias=True)
        (attn_drop): Dropout(p=0.0, inplace=False)
        (proj): Linear(in_features=384, out_features=384, bias=True)
        (proj_drop): Dropout(p=0.0, inplace=False)
        (softmax): Softmax(dim=-1)
      )
      (drop_path): DropPath()
      (norm2): LayerNorm((384,), eps=1e-05, elementwise_affine=True)
      (mlp): Mlp(
        (fc1): Linear(in_features=384, out_features=1536, bias=True)
        (act): GELU()
        (fc2): Linear(in_features=1536, out_features=384, bias=True)
        (drop): Dropout(p=0.0, inplace=False)
      )
    )
    (5): SwinTransformerBlock(
      (norm1): LayerNorm((384,), eps=1e-05, elementwise_affine=True)
      (attn): WindowAttention(
        (qkv): Linear(in_features=384, out_features=1152, bias=True)
        (attn_drop): Dropout(p=0.0, inplace=False)
        (proj): Linear(in_features=384, out_features=384, bias=True)
        (proj_drop): Dropout(p=0.0, inplace=False)
        (softmax): Softmax(dim=-1)
      )
      (drop_path): DropPath()
      (norm2): LayerNorm((384,), eps=1e-05, elementwise_affine=True)
      (mlp): Mlp(
        (fc1): Linear(in_features=384, out_features=1536, bias=True)
        (act): GELU()
        (fc2): Linear(in_features=1536, out_features=384, bias=True)
        (drop): Dropout(p=0.0, inplace=False)
      )
    )
  )
  (downsample): PatchMerging(
    (reduction): Linear(in_features=1536, out_features=768, bias=False)
    (norm): LayerNorm((1536,), eps=1e-05, elementwise_affine=True)
  )
)
--------------------------------------------------
3 BasicLayer(
  (blocks): ModuleList(
    (0): SwinTransformerBlock(
      (norm1): LayerNorm((768,), eps=1e-05, elementwise_affine=True)
      (attn): WindowAttention(
        (qkv): Linear(in_features=768, out_features=2304, bias=True)
        (attn_drop): Dropout(p=0.0, inplace=False)
        (proj): Linear(in_features=768, out_features=768, bias=True)
        (proj_drop): Dropout(p=0.0, inplace=False)
        (softmax): Softmax(dim=-1)
      )
      (drop_path): DropPath()
      (norm2): LayerNorm((768,), eps=1e-05, elementwise_affine=True)
      (mlp): Mlp(
        (fc1): Linear(in_features=768, out_features=3072, bias=True)
        (act): GELU()
        (fc2): Linear(in_features=3072, out_features=768, bias=True)
        (drop): Dropout(p=0.0, inplace=False)
      )
    )
    (1): SwinTransformerBlock(
      (norm1): LayerNorm((768,), eps=1e-05, elementwise_affine=True)
      (attn): WindowAttention(
        (qkv): Linear(in_features=768, out_features=2304, bias=True)
        (attn_drop): Dropout(p=0.0, inplace=False)
        (proj): Linear(in_features=768, out_features=768, bias=True)
        (proj_drop): Dropout(p=0.0, inplace=False)
        (softmax): Softmax(dim=-1)
      )
      (drop_path): DropPath()
      (norm2): LayerNorm((768,), eps=1e-05, elementwise_affine=True)
      (mlp): Mlp(
        (fc1): Linear(in_features=768, out_features=3072, bias=True)
        (act): GELU()
        (fc2): Linear(in_features=3072, out_features=768, bias=True)
        (drop): Dropout(p=0.0, inplace=False)
      )
    )
  )
)
torch.Size([4, 256, 100, 100])
torch.Size([4, 512, 50, 50])
torch.Size([4, 1024, 25, 25])
torch.Size([4, 512, 25, 25])
torch.Size([4, 512, 50, 50])
coco_CSPDarknet-s_640x640| train: total_epoch[1/300] total_batch[5/9000] batch[5/30] |size: 4x3x800x800 |lr: 0.00000069 |Tot: 0:00:07 |ETA: 0:00:44 |loss 19.4557 |conf_loss 13.0284 |cls_loss 1.6885 |iou_loss 4.7388 |num_fg 0.9861 |Data 0.615s |Batch 1.080s
xxxxxxxxxxxx: torch.Size([4, 3, 800, 800])
xxxxx:projjjjjjjjjjjjj: torch.Size([4, 96, 200, 200])
flatten: torch.Size([4, 40000, 96])
pos_drop: torch.Size([4, 40000, 96])
--------------------------------------------------
0 BasicLayer(
  (blocks): ModuleList(
    (0): SwinTransformerBlock(
      (norm1): LayerNorm((96,), eps=1e-05, elementwise_affine=True)
      (attn): WindowAttention(
        (qkv): Linear(in_features=96, out_features=288, bias=True)
        (attn_drop): Dropout(p=0.0, inplace=False)
        (proj): Linear(in_features=96, out_features=96, bias=True)
        (proj_drop): Dropout(p=0.0, inplace=False)
        (softmax): Softmax(dim=-1)
      )
      (drop_path): Identity()
      (norm2): LayerNorm((96,), eps=1e-05, elementwise_affine=True)
      (mlp): Mlp(
        (fc1): Linear(in_features=96, out_features=384, bias=True)
        (act): GELU()
        (fc2): Linear(in_features=384, out_features=96, bias=True)
        (drop): Dropout(p=0.0, inplace=False)
      )
    )
    (1): SwinTransformerBlock(
      (norm1): LayerNorm((96,), eps=1e-05, elementwise_affine=True)
      (attn): WindowAttention(
        (qkv): Linear(in_features=96, out_features=288, bias=True)
        (attn_drop): Dropout(p=0.0, inplace=False)
        (proj): Linear(in_features=96, out_features=96, bias=True)
        (proj_drop): Dropout(p=0.0, inplace=False)
        (softmax): Softmax(dim=-1)
      )
      (drop_path): DropPath()
      (norm2): LayerNorm((96,), eps=1e-05, elementwise_affine=True)
      (mlp): Mlp(
        (fc1): Linear(in_features=96, out_features=384, bias=True)
        (act): GELU()
        (fc2): Linear(in_features=384, out_features=96, bias=True)
        (drop): Dropout(p=0.0, inplace=False)
      )
    )
  )
  (downsample): PatchMerging(
    (reduction): Linear(in_features=384, out_features=192, bias=False)
    (norm): LayerNorm((384,), eps=1e-05, elementwise_affine=True)
  )
)
--------------------------------------------------
1 BasicLayer(
  (blocks): ModuleList(
    (0): SwinTransformerBlock(
      (norm1): LayerNorm((192,), eps=1e-05, elementwise_affine=True)
      (attn): WindowAttention(
        (qkv): Linear(in_features=192, out_features=576, bias=True)
        (attn_drop): Dropout(p=0.0, inplace=False)
        (proj): Linear(in_features=192, out_features=192, bias=True)
        (proj_drop): Dropout(p=0.0, inplace=False)
        (softmax): Softmax(dim=-1)
      )
      (drop_path): DropPath()
      (norm2): LayerNorm((192,), eps=1e-05, elementwise_affine=True)
      (mlp): Mlp(
        (fc1): Linear(in_features=192, out_features=768, bias=True)
        (act): GELU()
        (fc2): Linear(in_features=768, out_features=192, bias=True)
        (drop): Dropout(p=0.0, inplace=False)
      )
    )
    (1): SwinTransformerBlock(
      (norm1): LayerNorm((192,), eps=1e-05, elementwise_affine=True)
      (attn): WindowAttention(
        (qkv): Linear(in_features=192, out_features=576, bias=True)
        (attn_drop): Dropout(p=0.0, inplace=False)
        (proj): Linear(in_features=192, out_features=192, bias=True)
        (proj_drop): Dropout(p=0.0, inplace=False)
        (softmax): Softmax(dim=-1)
      )
      (drop_path): DropPath()
      (norm2): LayerNorm((192,), eps=1e-05, elementwise_affine=True)
      (mlp): Mlp(
        (fc1): Linear(in_features=192, out_features=768, bias=True)
        (act): GELU()
        (fc2): Linear(in_features=768, out_features=192, bias=True)
        (drop): Dropout(p=0.0, inplace=False)
      )
    )
  )
  (downsample): PatchMerging(
    (reduction): Linear(in_features=768, out_features=384, bias=False)
    (norm): LayerNorm((768,), eps=1e-05, elementwise_affine=True)
  )
)
--------------------------------------------------
2 BasicLayer(
  (blocks): ModuleList(
    (0): SwinTransformerBlock(
      (norm1): LayerNorm((384,), eps=1e-05, elementwise_affine=True)
      (attn): WindowAttention(
        (qkv): Linear(in_features=384, out_features=1152, bias=True)
        (attn_drop): Dropout(p=0.0, inplace=False)
        (proj): Linear(in_features=384, out_features=384, bias=True)
        (proj_drop): Dropout(p=0.0, inplace=False)
        (softmax): Softmax(dim=-1)
      )
      (drop_path): DropPath()
      (norm2): LayerNorm((384,), eps=1e-05, elementwise_affine=True)
      (mlp): Mlp(
        (fc1): Linear(in_features=384, out_features=1536, bias=True)
        (act): GELU()
        (fc2): Linear(in_features=1536, out_features=384, bias=True)
        (drop): Dropout(p=0.0, inplace=False)
      )
    )
    (1): SwinTransformerBlock(
      (norm1): LayerNorm((384,), eps=1e-05, elementwise_affine=True)
      (attn): WindowAttention(
        (qkv): Linear(in_features=384, out_features=1152, bias=True)
        (attn_drop): Dropout(p=0.0, inplace=False)
        (proj): Linear(in_features=384, out_features=384, bias=True)
        (proj_drop): Dropout(p=0.0, inplace=False)
        (softmax): Softmax(dim=-1)
      )
      (drop_path): DropPath()
      (norm2): LayerNorm((384,), eps=1e-05, elementwise_affine=True)
      (mlp): Mlp(
        (fc1): Linear(in_features=384, out_features=1536, bias=True)
        (act): GELU()
        (fc2): Linear(in_features=1536, out_features=384, bias=True)
        (drop): Dropout(p=0.0, inplace=False)
      )
    )
    (2): SwinTransformerBlock(
      (norm1): LayerNorm((384,), eps=1e-05, elementwise_affine=True)
      (attn): WindowAttention(
        (qkv): Linear(in_features=384, out_features=1152, bias=True)
        (attn_drop): Dropout(p=0.0, inplace=False)
        (proj): Linear(in_features=384, out_features=384, bias=True)
        (proj_drop): Dropout(p=0.0, inplace=False)
        (softmax): Softmax(dim=-1)
      )
      (drop_path): DropPath()
      (norm2): LayerNorm((384,), eps=1e-05, elementwise_affine=True)
      (mlp): Mlp(
        (fc1): Linear(in_features=384, out_features=1536, bias=True)
        (act): GELU()
        (fc2): Linear(in_features=1536, out_features=384, bias=True)
        (drop): Dropout(p=0.0, inplace=False)
      )
    )
    (3): SwinTransformerBlock(
      (norm1): LayerNorm((384,), eps=1e-05, elementwise_affine=True)
      (attn): WindowAttention(
        (qkv): Linear(in_features=384, out_features=1152, bias=True)
        (attn_drop): Dropout(p=0.0, inplace=False)
        (proj): Linear(in_features=384, out_features=384, bias=True)
        (proj_drop): Dropout(p=0.0, inplace=False)
        (softmax): Softmax(dim=-1)
      )
      (drop_path): DropPath()
      (norm2): LayerNorm((384,), eps=1e-05, elementwise_affine=True)
      (mlp): Mlp(
        (fc1): Linear(in_features=384, out_features=1536, bias=True)
        (act): GELU()
        (fc2): Linear(in_features=1536, out_features=384, bias=True)
        (drop): Dropout(p=0.0, inplace=False)
      )
    )
    (4): SwinTransformerBlock(
      (norm1): LayerNorm((384,), eps=1e-05, elementwise_affine=True)
      (attn): WindowAttention(
        (qkv): Linear(in_features=384, out_features=1152, bias=True)
        (attn_drop): Dropout(p=0.0, inplace=False)
        (proj): Linear(in_features=384, out_features=384, bias=True)
        (proj_drop): Dropout(p=0.0, inplace=False)
        (softmax): Softmax(dim=-1)
      )
      (drop_path): DropPath()
      (norm2): LayerNorm((384,), eps=1e-05, elementwise_affine=True)
      (mlp): Mlp(
        (fc1): Linear(in_features=384, out_features=1536, bias=True)
        (act): GELU()
        (fc2): Linear(in_features=1536, out_features=384, bias=True)
        (drop): Dropout(p=0.0, inplace=False)
      )
    )
    (5): SwinTransformerBlock(
      (norm1): LayerNorm((384,), eps=1e-05, elementwise_affine=True)
      (attn): WindowAttention(
        (qkv): Linear(in_features=384, out_features=1152, bias=True)
        (attn_drop): Dropout(p=0.0, inplace=False)
        (proj): Linear(in_features=384, out_features=384, bias=True)
        (proj_drop): Dropout(p=0.0, inplace=False)
        (softmax): Softmax(dim=-1)
      )
      (drop_path): DropPath()
      (norm2): LayerNorm((384,), eps=1e-05, elementwise_affine=True)
      (mlp): Mlp(
        (fc1): Linear(in_features=384, out_features=1536, bias=True)
        (act): GELU()
        (fc2): Linear(in_features=1536, out_features=384, bias=True)
        (drop): Dropout(p=0.0, inplace=False)
      )
    )
  )
  (downsample): PatchMerging(
    (reduction): Linear(in_features=1536, out_features=768, bias=False)
    (norm): LayerNorm((1536,), eps=1e-05, elementwise_affine=True)
  )
)
--------------------------------------------------
3 BasicLayer(
  (blocks): ModuleList(
    (0): SwinTransformerBlock(
      (norm1): LayerNorm((768,), eps=1e-05, elementwise_affine=True)
      (attn): WindowAttention(
        (qkv): Linear(in_features=768, out_features=2304, bias=True)
        (attn_drop): Dropout(p=0.0, inplace=False)
        (proj): Linear(in_features=768, out_features=768, bias=True)
        (proj_drop): Dropout(p=0.0, inplace=False)
        (softmax): Softmax(dim=-1)
      )
      (drop_path): DropPath()
      (norm2): LayerNorm((768,), eps=1e-05, elementwise_affine=True)
      (mlp): Mlp(
        (fc1): Linear(in_features=768, out_features=3072, bias=True)
        (act): GELU()
        (fc2): Linear(in_features=3072, out_features=768, bias=True)
        (drop): Dropout(p=0.0, inplace=False)
      )
    )
    (1): SwinTransformerBlock(
      (norm1): LayerNorm((768,), eps=1e-05, elementwise_affine=True)
      (attn): WindowAttention(
        (qkv): Linear(in_features=768, out_features=2304, bias=True)
        (attn_drop): Dropout(p=0.0, inplace=False)
        (proj): Linear(in_features=768, out_features=768, bias=True)
        (proj_drop): Dropout(p=0.0, inplace=False)
        (softmax): Softmax(dim=-1)
      )
      (drop_path): DropPath()
      (norm2): LayerNorm((768,), eps=1e-05, elementwise_affine=True)
      (mlp): Mlp(
        (fc1): Linear(in_features=768, out_features=3072, bias=True)
        (act): GELU()
        (fc2): Linear(in_features=3072, out_features=768, bias=True)
        (drop): Dropout(p=0.0, inplace=False)
      )
    )
  )
)
torch.Size([4, 256, 100, 100])
torch.Size([4, 512, 50, 50])
torch.Size([4, 1024, 25, 25])
torch.Size([4, 512, 25, 25])
torch.Size([4, 512, 50, 50])
coco_CSPDarknet-s_640x640| train: total_epoch[1/300] total_batch[6/9000] batch[6/30] |size: 4x3x800x800 |lr: 0.00000100 |Tot: 0:00:08 |ETA: 0:00:39 |loss 19.7075 |conf_loss 13.3153 |cls_loss 1.6337 |iou_loss 4.7585 |num_fg 0.9823 |Data 0.467s |Batch 0.966s
xxxxxxxxxxxx: torch.Size([4, 3, 800, 800])
xxxxx:projjjjjjjjjjjjj: torch.Size([4, 96, 200, 200])
flatten: torch.Size([4, 40000, 96])
pos_drop: torch.Size([4, 40000, 96])
--------------------------------------------------
0 BasicLayer(
  (blocks): ModuleList(
    (0): SwinTransformerBlock(
      (norm1): LayerNorm((96,), eps=1e-05, elementwise_affine=True)
      (attn): WindowAttention(
        (qkv): Linear(in_features=96, out_features=288, bias=True)
        (attn_drop): Dropout(p=0.0, inplace=False)
        (proj): Linear(in_features=96, out_features=96, bias=True)
        (proj_drop): Dropout(p=0.0, inplace=False)
        (softmax): Softmax(dim=-1)
      )
      (drop_path): Identity()
      (norm2): LayerNorm((96,), eps=1e-05, elementwise_affine=True)
      (mlp): Mlp(
        (fc1): Linear(in_features=96, out_features=384, bias=True)
        (act): GELU()
        (fc2): Linear(in_features=384, out_features=96, bias=True)
        (drop): Dropout(p=0.0, inplace=False)
      )
    )
    (1): SwinTransformerBlock(
      (norm1): LayerNorm((96,), eps=1e-05, elementwise_affine=True)
      (attn): WindowAttention(
        (qkv): Linear(in_features=96, out_features=288, bias=True)
        (attn_drop): Dropout(p=0.0, inplace=False)
        (proj): Linear(in_features=96, out_features=96, bias=True)
        (proj_drop): Dropout(p=0.0, inplace=False)
        (softmax): Softmax(dim=-1)
      )
      (drop_path): DropPath()
      (norm2): LayerNorm((96,), eps=1e-05, elementwise_affine=True)
      (mlp): Mlp(
        (fc1): Linear(in_features=96, out_features=384, bias=True)
        (act): GELU()
        (fc2): Linear(in_features=384, out_features=96, bias=True)
        (drop): Dropout(p=0.0, inplace=False)
      )
    )
  )
  (downsample): PatchMerging(
    (reduction): Linear(in_features=384, out_features=192, bias=False)
    (norm): LayerNorm((384,), eps=1e-05, elementwise_affine=True)
  )
)
--------------------------------------------------
1 BasicLayer(
  (blocks): ModuleList(
    (0): SwinTransformerBlock(
      (norm1): LayerNorm((192,), eps=1e-05, elementwise_affine=True)
      (attn): WindowAttention(
        (qkv): Linear(in_features=192, out_features=576, bias=True)
        (attn_drop): Dropout(p=0.0, inplace=False)
        (proj): Linear(in_features=192, out_features=192, bias=True)
        (proj_drop): Dropout(p=0.0, inplace=False)
        (softmax): Softmax(dim=-1)
      )
      (drop_path): DropPath()
      (norm2): LayerNorm((192,), eps=1e-05, elementwise_affine=True)
      (mlp): Mlp(
        (fc1): Linear(in_features=192, out_features=768, bias=True)
        (act): GELU()
        (fc2): Linear(in_features=768, out_features=192, bias=True)
        (drop): Dropout(p=0.0, inplace=False)
      )
    )
    (1): SwinTransformerBlock(
      (norm1): LayerNorm((192,), eps=1e-05, elementwise_affine=True)
      (attn): WindowAttention(
        (qkv): Linear(in_features=192, out_features=576, bias=True)
        (attn_drop): Dropout(p=0.0, inplace=False)
        (proj): Linear(in_features=192, out_features=192, bias=True)
        (proj_drop): Dropout(p=0.0, inplace=False)
        (softmax): Softmax(dim=-1)
      )
      (drop_path): DropPath()
      (norm2): LayerNorm((192,), eps=1e-05, elementwise_affine=True)
      (mlp): Mlp(
        (fc1): Linear(in_features=192, out_features=768, bias=True)
        (act): GELU()
        (fc2): Linear(in_features=768, out_features=192, bias=True)
        (drop): Dropout(p=0.0, inplace=False)
      )
    )
  )
  (downsample): PatchMerging(
    (reduction): Linear(in_features=768, out_features=384, bias=False)
    (norm): LayerNorm((768,), eps=1e-05, elementwise_affine=True)
  )
)
--------------------------------------------------
2 BasicLayer(
  (blocks): ModuleList(
    (0): SwinTransformerBlock(
      (norm1): LayerNorm((384,), eps=1e-05, elementwise_affine=True)
      (attn): WindowAttention(
        (qkv): Linear(in_features=384, out_features=1152, bias=True)
        (attn_drop): Dropout(p=0.0, inplace=False)
        (proj): Linear(in_features=384, out_features=384, bias=True)
        (proj_drop): Dropout(p=0.0, inplace=False)
        (softmax): Softmax(dim=-1)
      )
      (drop_path): DropPath()
      (norm2): LayerNorm((384,), eps=1e-05, elementwise_affine=True)
      (mlp): Mlp(
        (fc1): Linear(in_features=384, out_features=1536, bias=True)
        (act): GELU()
        (fc2): Linear(in_features=1536, out_features=384, bias=True)
        (drop): Dropout(p=0.0, inplace=False)
      )
    )
    (1): SwinTransformerBlock(
      (norm1): LayerNorm((384,), eps=1e-05, elementwise_affine=True)
      (attn): WindowAttention(
        (qkv): Linear(in_features=384, out_features=1152, bias=True)
        (attn_drop): Dropout(p=0.0, inplace=False)
        (proj): Linear(in_features=384, out_features=384, bias=True)
        (proj_drop): Dropout(p=0.0, inplace=False)
        (softmax): Softmax(dim=-1)
      )
      (drop_path): DropPath()
      (norm2): LayerNorm((384,), eps=1e-05, elementwise_affine=True)
      (mlp): Mlp(
        (fc1): Linear(in_features=384, out_features=1536, bias=True)
        (act): GELU()
        (fc2): Linear(in_features=1536, out_features=384, bias=True)
        (drop): Dropout(p=0.0, inplace=False)
      )
    )
    (2): SwinTransformerBlock(
      (norm1): LayerNorm((384,), eps=1e-05, elementwise_affine=True)
      (attn): WindowAttention(
        (qkv): Linear(in_features=384, out_features=1152, bias=True)
        (attn_drop): Dropout(p=0.0, inplace=False)
        (proj): Linear(in_features=384, out_features=384, bias=True)
        (proj_drop): Dropout(p=0.0, inplace=False)
        (softmax): Softmax(dim=-1)
      )
      (drop_path): DropPath()
      (norm2): LayerNorm((384,), eps=1e-05, elementwise_affine=True)
      (mlp): Mlp(
        (fc1): Linear(in_features=384, out_features=1536, bias=True)
        (act): GELU()
        (fc2): Linear(in_features=1536, out_features=384, bias=True)
        (drop): Dropout(p=0.0, inplace=False)
      )
    )
    (3): SwinTransformerBlock(
      (norm1): LayerNorm((384,), eps=1e-05, elementwise_affine=True)
      (attn): WindowAttention(
        (qkv): Linear(in_features=384, out_features=1152, bias=True)
        (attn_drop): Dropout(p=0.0, inplace=False)
        (proj): Linear(in_features=384, out_features=384, bias=True)
        (proj_drop): Dropout(p=0.0, inplace=False)
        (softmax): Softmax(dim=-1)
      )
      (drop_path): DropPath()
      (norm2): LayerNorm((384,), eps=1e-05, elementwise_affine=True)
      (mlp): Mlp(
        (fc1): Linear(in_features=384, out_features=1536, bias=True)
        (act): GELU()
        (fc2): Linear(in_features=1536, out_features=384, bias=True)
        (drop): Dropout(p=0.0, inplace=False)
      )
    )
    (4): SwinTransformerBlock(
      (norm1): LayerNorm((384,), eps=1e-05, elementwise_affine=True)
      (attn): WindowAttention(
        (qkv): Linear(in_features=384, out_features=1152, bias=True)
        (attn_drop): Dropout(p=0.0, inplace=False)
        (proj): Linear(in_features=384, out_features=384, bias=True)
        (proj_drop): Dropout(p=0.0, inplace=False)
        (softmax): Softmax(dim=-1)
      )
      (drop_path): DropPath()
      (norm2): LayerNorm((384,), eps=1e-05, elementwise_affine=True)
      (mlp): Mlp(
        (fc1): Linear(in_features=384, out_features=1536, bias=True)
        (act): GELU()
        (fc2): Linear(in_features=1536, out_features=384, bias=True)
        (drop): Dropout(p=0.0, inplace=False)
      )
    )
    (5): SwinTransformerBlock(
      (norm1): LayerNorm((384,), eps=1e-05, elementwise_affine=True)
      (attn): WindowAttention(
        (qkv): Linear(in_features=384, out_features=1152, bias=True)
        (attn_drop): Dropout(p=0.0, inplace=False)
        (proj): Linear(in_features=384, out_features=384, bias=True)
        (proj_drop): Dropout(p=0.0, inplace=False)
        (softmax): Softmax(dim=-1)
      )
      (drop_path): DropPath()
      (norm2): LayerNorm((384,), eps=1e-05, elementwise_affine=True)
      (mlp): Mlp(
        (fc1): Linear(in_features=384, out_features=1536, bias=True)
        (act): GELU()
        (fc2): Linear(in_features=1536, out_features=384, bias=True)
        (drop): Dropout(p=0.0, inplace=False)
      )
    )
  )
  (downsample): PatchMerging(
    (reduction): Linear(in_features=1536, out_features=768, bias=False)
    (norm): LayerNorm((1536,), eps=1e-05, elementwise_affine=True)
  )
)
--------------------------------------------------
3 BasicLayer(
  (blocks): ModuleList(
    (0): SwinTransformerBlock(
      (norm1): LayerNorm((768,), eps=1e-05, elementwise_affine=True)
      (attn): WindowAttention(
        (qkv): Linear(in_features=768, out_features=2304, bias=True)
        (attn_drop): Dropout(p=0.0, inplace=False)
        (proj): Linear(in_features=768, out_features=768, bias=True)
        (proj_drop): Dropout(p=0.0, inplace=False)
        (softmax): Softmax(dim=-1)
      )
      (drop_path): DropPath()
      (norm2): LayerNorm((768,), eps=1e-05, elementwise_affine=True)
      (mlp): Mlp(
        (fc1): Linear(in_features=768, out_features=3072, bias=True)
        (act): GELU()
        (fc2): Linear(in_features=3072, out_features=768, bias=True)
        (drop): Dropout(p=0.0, inplace=False)
      )
    )
    (1): SwinTransformerBlock(
      (norm1): LayerNorm((768,), eps=1e-05, elementwise_affine=True)
      (attn): WindowAttention(
        (qkv): Linear(in_features=768, out_features=2304, bias=True)
        (attn_drop): Dropout(p=0.0, inplace=False)
        (proj): Linear(in_features=768, out_features=768, bias=True)
        (proj_drop): Dropout(p=0.0, inplace=False)
        (softmax): Softmax(dim=-1)
      )
      (drop_path): DropPath()
      (norm2): LayerNorm((768,), eps=1e-05, elementwise_affine=True)
      (mlp): Mlp(
        (fc1): Linear(in_features=768, out_features=3072, bias=True)
        (act): GELU()
        (fc2): Linear(in_features=3072, out_features=768, bias=True)
        (drop): Dropout(p=0.0, inplace=False)
      )
    )
  )
)
torch.Size([4, 256, 100, 100])
torch.Size([4, 512, 50, 50])
torch.Size([4, 1024, 25, 25])
torch.Size([4, 512, 25, 25])
torch.Size([4, 512, 50, 50])
coco_CSPDarknet-s_640x640| train: total_epoch[1/300] total_batch[7/9000] batch[7/30] |size: 4x3x800x800 |lr: 0.00000136 |Tot: 0:00:09 |ETA: 0:00:35 |loss 19.9149 |conf_loss 13.5343 |cls_loss 1.6160 |iou_loss 4.7646 |num_fg 0.9794 |Data 0.372s |Batch 0.798s
xxxxxxxxxxxx: torch.Size([4, 3, 800, 800])
xxxxx:projjjjjjjjjjjjj: torch.Size([4, 96, 200, 200])
flatten: torch.Size([4, 40000, 96])
pos_drop: torch.Size([4, 40000, 96])
--------------------------------------------------
0 BasicLayer(
  (blocks): ModuleList(
    (0): SwinTransformerBlock(
      (norm1): LayerNorm((96,), eps=1e-05, elementwise_affine=True)
      (attn): WindowAttention(
        (qkv): Linear(in_features=96, out_features=288, bias=True)
        (attn_drop): Dropout(p=0.0, inplace=False)
        (proj): Linear(in_features=96, out_features=96, bias=True)
        (proj_drop): Dropout(p=0.0, inplace=False)
        (softmax): Softmax(dim=-1)
      )
      (drop_path): Identity()
      (norm2): LayerNorm((96,), eps=1e-05, elementwise_affine=True)
      (mlp): Mlp(
        (fc1): Linear(in_features=96, out_features=384, bias=True)
        (act): GELU()
        (fc2): Linear(in_features=384, out_features=96, bias=True)
        (drop): Dropout(p=0.0, inplace=False)
      )
    )
    (1): SwinTransformerBlock(
      (norm1): LayerNorm((96,), eps=1e-05, elementwise_affine=True)
      (attn): WindowAttention(
        (qkv): Linear(in_features=96, out_features=288, bias=True)
        (attn_drop): Dropout(p=0.0, inplace=False)
        (proj): Linear(in_features=96, out_features=96, bias=True)
        (proj_drop): Dropout(p=0.0, inplace=False)
        (softmax): Softmax(dim=-1)
      )
      (drop_path): DropPath()
      (norm2): LayerNorm((96,), eps=1e-05, elementwise_affine=True)
      (mlp): Mlp(
        (fc1): Linear(in_features=96, out_features=384, bias=True)
        (act): GELU()
        (fc2): Linear(in_features=384, out_features=96, bias=True)
        (drop): Dropout(p=0.0, inplace=False)
      )
    )
  )
  (downsample): PatchMerging(
    (reduction): Linear(in_features=384, out_features=192, bias=False)
    (norm): LayerNorm((384,), eps=1e-05, elementwise_affine=True)
  )
)
--------------------------------------------------
1 BasicLayer(
  (blocks): ModuleList(
    (0): SwinTransformerBlock(
      (norm1): LayerNorm((192,), eps=1e-05, elementwise_affine=True)
      (attn): WindowAttention(
        (qkv): Linear(in_features=192, out_features=576, bias=True)
        (attn_drop): Dropout(p=0.0, inplace=False)
        (proj): Linear(in_features=192, out_features=192, bias=True)
        (proj_drop): Dropout(p=0.0, inplace=False)
        (softmax): Softmax(dim=-1)
      )
      (drop_path): DropPath()
      (norm2): LayerNorm((192,), eps=1e-05, elementwise_affine=True)
      (mlp): Mlp(
        (fc1): Linear(in_features=192, out_features=768, bias=True)
        (act): GELU()
        (fc2): Linear(in_features=768, out_features=192, bias=True)
        (drop): Dropout(p=0.0, inplace=False)
      )
    )
    (1): SwinTransformerBlock(
      (norm1): LayerNorm((192,), eps=1e-05, elementwise_affine=True)
      (attn): WindowAttention(
        (qkv): Linear(in_features=192, out_features=576, bias=True)
        (attn_drop): Dropout(p=0.0, inplace=False)
        (proj): Linear(in_features=192, out_features=192, bias=True)
        (proj_drop): Dropout(p=0.0, inplace=False)
        (softmax): Softmax(dim=-1)
      )
      (drop_path): DropPath()
      (norm2): LayerNorm((192,), eps=1e-05, elementwise_affine=True)
      (mlp): Mlp(
        (fc1): Linear(in_features=192, out_features=768, bias=True)
        (act): GELU()
        (fc2): Linear(in_features=768, out_features=192, bias=True)
        (drop): Dropout(p=0.0, inplace=False)
      )
    )
  )
  (downsample): PatchMerging(
    (reduction): Linear(in_features=768, out_features=384, bias=False)
    (norm): LayerNorm((768,), eps=1e-05, elementwise_affine=True)
  )
)
--------------------------------------------------
2 BasicLayer(
  (blocks): ModuleList(
    (0): SwinTransformerBlock(
      (norm1): LayerNorm((384,), eps=1e-05, elementwise_affine=True)
      (attn): WindowAttention(
        (qkv): Linear(in_features=384, out_features=1152, bias=True)
        (attn_drop): Dropout(p=0.0, inplace=False)
        (proj): Linear(in_features=384, out_features=384, bias=True)
        (proj_drop): Dropout(p=0.0, inplace=False)
        (softmax): Softmax(dim=-1)
      )
      (drop_path): DropPath()
      (norm2): LayerNorm((384,), eps=1e-05, elementwise_affine=True)
      (mlp): Mlp(
        (fc1): Linear(in_features=384, out_features=1536, bias=True)
        (act): GELU()
        (fc2): Linear(in_features=1536, out_features=384, bias=True)
        (drop): Dropout(p=0.0, inplace=False)
      )
    )
    (1): SwinTransformerBlock(
      (norm1): LayerNorm((384,), eps=1e-05, elementwise_affine=True)
      (attn): WindowAttention(
        (qkv): Linear(in_features=384, out_features=1152, bias=True)
        (attn_drop): Dropout(p=0.0, inplace=False)
        (proj): Linear(in_features=384, out_features=384, bias=True)
        (proj_drop): Dropout(p=0.0, inplace=False)
        (softmax): Softmax(dim=-1)
      )
      (drop_path): DropPath()
      (norm2): LayerNorm((384,), eps=1e-05, elementwise_affine=True)
      (mlp): Mlp(
        (fc1): Linear(in_features=384, out_features=1536, bias=True)
        (act): GELU()
        (fc2): Linear(in_features=1536, out_features=384, bias=True)
        (drop): Dropout(p=0.0, inplace=False)
      )
    )
    (2): SwinTransformerBlock(
      (norm1): LayerNorm((384,), eps=1e-05, elementwise_affine=True)
      (attn): WindowAttention(
        (qkv): Linear(in_features=384, out_features=1152, bias=True)
        (attn_drop): Dropout(p=0.0, inplace=False)
        (proj): Linear(in_features=384, out_features=384, bias=True)
        (proj_drop): Dropout(p=0.0, inplace=False)
        (softmax): Softmax(dim=-1)
      )
      (drop_path): DropPath()
      (norm2): LayerNorm((384,), eps=1e-05, elementwise_affine=True)
      (mlp): Mlp(
        (fc1): Linear(in_features=384, out_features=1536, bias=True)
        (act): GELU()
        (fc2): Linear(in_features=1536, out_features=384, bias=True)
        (drop): Dropout(p=0.0, inplace=False)
      )
    )
    (3): SwinTransformerBlock(
      (norm1): LayerNorm((384,), eps=1e-05, elementwise_affine=True)
      (attn): WindowAttention(
        (qkv): Linear(in_features=384, out_features=1152, bias=True)
        (attn_drop): Dropout(p=0.0, inplace=False)
        (proj): Linear(in_features=384, out_features=384, bias=True)
        (proj_drop): Dropout(p=0.0, inplace=False)
        (softmax): Softmax(dim=-1)
      )
      (drop_path): DropPath()
      (norm2): LayerNorm((384,), eps=1e-05, elementwise_affine=True)
      (mlp): Mlp(
        (fc1): Linear(in_features=384, out_features=1536, bias=True)
        (act): GELU()
        (fc2): Linear(in_features=1536, out_features=384, bias=True)
        (drop): Dropout(p=0.0, inplace=False)
      )
    )
    (4): SwinTransformerBlock(
      (norm1): LayerNorm((384,), eps=1e-05, elementwise_affine=True)
      (attn): WindowAttention(
        (qkv): Linear(in_features=384, out_features=1152, bias=True)
        (attn_drop): Dropout(p=0.0, inplace=False)
        (proj): Linear(in_features=384, out_features=384, bias=True)
        (proj_drop): Dropout(p=0.0, inplace=False)
        (softmax): Softmax(dim=-1)
      )
      (drop_path): DropPath()
      (norm2): LayerNorm((384,), eps=1e-05, elementwise_affine=True)
      (mlp): Mlp(
        (fc1): Linear(in_features=384, out_features=1536, bias=True)
        (act): GELU()
        (fc2): Linear(in_features=1536, out_features=384, bias=True)
        (drop): Dropout(p=0.0, inplace=False)
      )
    )
    (5): SwinTransformerBlock(
      (norm1): LayerNorm((384,), eps=1e-05, elementwise_affine=True)
      (attn): WindowAttention(
        (qkv): Linear(in_features=384, out_features=1152, bias=True)
        (attn_drop): Dropout(p=0.0, inplace=False)
        (proj): Linear(in_features=384, out_features=384, bias=True)
        (proj_drop): Dropout(p=0.0, inplace=False)
        (softmax): Softmax(dim=-1)
      )
      (drop_path): DropPath()
      (norm2): LayerNorm((384,), eps=1e-05, elementwise_affine=True)
      (mlp): Mlp(
        (fc1): Linear(in_features=384, out_features=1536, bias=True)
        (act): GELU()
        (fc2): Linear(in_features=1536, out_features=384, bias=True)
        (drop): Dropout(p=0.0, inplace=False)
      )
    )
  )
  (downsample): PatchMerging(
    (reduction): Linear(in_features=1536, out_features=768, bias=False)
    (norm): LayerNorm((1536,), eps=1e-05, elementwise_affine=True)
  )
)
--------------------------------------------------
3 BasicLayer(
  (blocks): ModuleList(
    (0): SwinTransformerBlock(
      (norm1): LayerNorm((768,), eps=1e-05, elementwise_affine=True)
      (attn): WindowAttention(
        (qkv): Linear(in_features=768, out_features=2304, bias=True)
        (attn_drop): Dropout(p=0.0, inplace=False)
        (proj): Linear(in_features=768, out_features=768, bias=True)
        (proj_drop): Dropout(p=0.0, inplace=False)
        (softmax): Softmax(dim=-1)
      )
      (drop_path): DropPath()
      (norm2): LayerNorm((768,), eps=1e-05, elementwise_affine=True)
      (mlp): Mlp(
        (fc1): Linear(in_features=768, out_features=3072, bias=True)
        (act): GELU()
        (fc2): Linear(in_features=3072, out_features=768, bias=True)
        (drop): Dropout(p=0.0, inplace=False)
      )
    )
    (1): SwinTransformerBlock(
      (norm1): LayerNorm((768,), eps=1e-05, elementwise_affine=True)
      (attn): WindowAttention(
        (qkv): Linear(in_features=768, out_features=2304, bias=True)
        (attn_drop): Dropout(p=0.0, inplace=False)
        (proj): Linear(in_features=768, out_features=768, bias=True)
        (proj_drop): Dropout(p=0.0, inplace=False)
        (softmax): Softmax(dim=-1)
      )
      (drop_path): DropPath()
      (norm2): LayerNorm((768,), eps=1e-05, elementwise_affine=True)
      (mlp): Mlp(
        (fc1): Linear(in_features=768, out_features=3072, bias=True)
        (act): GELU()
        (fc2): Linear(in_features=3072, out_features=768, bias=True)
        (drop): Dropout(p=0.0, inplace=False)
      )
    )
  )
)
torch.Size([4, 256, 100, 100])
torch.Size([4, 512, 50, 50])
torch.Size([4, 1024, 25, 25])
torch.Size([4, 512, 25, 25])
torch.Size([4, 512, 50, 50])
coco_CSPDarknet-s_640x640| train: total_epoch[1/300] total_batch[8/9000] batch[8/30] |size: 4x3x800x800 |lr: 0.00000178 |Tot: 0:00:10 |ETA: 0:00:32 |loss 20.4764 |conf_loss 14.1013 |cls_loss 1.6079 |iou_loss 4.7673 |num_fg 0.9758 |Data 0.395s |Batch 0.817s
xxxxxxxxxxxx: torch.Size([4, 3, 800, 800])
xxxxx:projjjjjjjjjjjjj: torch.Size([4, 96, 200, 200])
flatten: torch.Size([4, 40000, 96])
pos_drop: torch.Size([4, 40000, 96])
--------------------------------------------------
0 BasicLayer(
  (blocks): ModuleList(
    (0): SwinTransformerBlock(
      (norm1): LayerNorm((96,), eps=1e-05, elementwise_affine=True)
      (attn): WindowAttention(
        (qkv): Linear(in_features=96, out_features=288, bias=True)
        (attn_drop): Dropout(p=0.0, inplace=False)
        (proj): Linear(in_features=96, out_features=96, bias=True)
        (proj_drop): Dropout(p=0.0, inplace=False)
        (softmax): Softmax(dim=-1)
      )
      (drop_path): Identity()
      (norm2): LayerNorm((96,), eps=1e-05, elementwise_affine=True)
      (mlp): Mlp(
        (fc1): Linear(in_features=96, out_features=384, bias=True)
        (act): GELU()
        (fc2): Linear(in_features=384, out_features=96, bias=True)
        (drop): Dropout(p=0.0, inplace=False)
      )
    )
    (1): SwinTransformerBlock(
      (norm1): LayerNorm((96,), eps=1e-05, elementwise_affine=True)
      (attn): WindowAttention(
        (qkv): Linear(in_features=96, out_features=288, bias=True)
        (attn_drop): Dropout(p=0.0, inplace=False)
        (proj): Linear(in_features=96, out_features=96, bias=True)
        (proj_drop): Dropout(p=0.0, inplace=False)
        (softmax): Softmax(dim=-1)
      )
      (drop_path): DropPath()
      (norm2): LayerNorm((96,), eps=1e-05, elementwise_affine=True)
      (mlp): Mlp(
        (fc1): Linear(in_features=96, out_features=384, bias=True)
        (act): GELU()
        (fc2): Linear(in_features=384, out_features=96, bias=True)
        (drop): Dropout(p=0.0, inplace=False)
      )
    )
  )
  (downsample): PatchMerging(
    (reduction): Linear(in_features=384, out_features=192, bias=False)
    (norm): LayerNorm((384,), eps=1e-05, elementwise_affine=True)
  )
)
--------------------------------------------------
1 BasicLayer(
  (blocks): ModuleList(
    (0): SwinTransformerBlock(
      (norm1): LayerNorm((192,), eps=1e-05, elementwise_affine=True)
      (attn): WindowAttention(
        (qkv): Linear(in_features=192, out_features=576, bias=True)
        (attn_drop): Dropout(p=0.0, inplace=False)
        (proj): Linear(in_features=192, out_features=192, bias=True)
        (proj_drop): Dropout(p=0.0, inplace=False)
        (softmax): Softmax(dim=-1)
      )
      (drop_path): DropPath()
      (norm2): LayerNorm((192,), eps=1e-05, elementwise_affine=True)
      (mlp): Mlp(
        (fc1): Linear(in_features=192, out_features=768, bias=True)
        (act): GELU()
        (fc2): Linear(in_features=768, out_features=192, bias=True)
        (drop): Dropout(p=0.0, inplace=False)
      )
    )
    (1): SwinTransformerBlock(
      (norm1): LayerNorm((192,), eps=1e-05, elementwise_affine=True)
      (attn): WindowAttention(
        (qkv): Linear(in_features=192, out_features=576, bias=True)
        (attn_drop): Dropout(p=0.0, inplace=False)
        (proj): Linear(in_features=192, out_features=192, bias=True)
        (proj_drop): Dropout(p=0.0, inplace=False)
        (softmax): Softmax(dim=-1)
      )
      (drop_path): DropPath()
      (norm2): LayerNorm((192,), eps=1e-05, elementwise_affine=True)
      (mlp): Mlp(
        (fc1): Linear(in_features=192, out_features=768, bias=True)
        (act): GELU()
        (fc2): Linear(in_features=768, out_features=192, bias=True)
        (drop): Dropout(p=0.0, inplace=False)
      )
    )
  )
  (downsample): PatchMerging(
    (reduction): Linear(in_features=768, out_features=384, bias=False)
    (norm): LayerNorm((768,), eps=1e-05, elementwise_affine=True)
  )
)
--------------------------------------------------
2 BasicLayer(
  (blocks): ModuleList(
    (0): SwinTransformerBlock(
      (norm1): LayerNorm((384,), eps=1e-05, elementwise_affine=True)
      (attn): WindowAttention(
        (qkv): Linear(in_features=384, out_features=1152, bias=True)
        (attn_drop): Dropout(p=0.0, inplace=False)
        (proj): Linear(in_features=384, out_features=384, bias=True)
        (proj_drop): Dropout(p=0.0, inplace=False)
        (softmax): Softmax(dim=-1)
      )
      (drop_path): DropPath()
      (norm2): LayerNorm((384,), eps=1e-05, elementwise_affine=True)
      (mlp): Mlp(
        (fc1): Linear(in_features=384, out_features=1536, bias=True)
        (act): GELU()
        (fc2): Linear(in_features=1536, out_features=384, bias=True)
        (drop): Dropout(p=0.0, inplace=False)
      )
    )
    (1): SwinTransformerBlock(
      (norm1): LayerNorm((384,), eps=1e-05, elementwise_affine=True)
      (attn): WindowAttention(
        (qkv): Linear(in_features=384, out_features=1152, bias=True)
        (attn_drop): Dropout(p=0.0, inplace=False)
        (proj): Linear(in_features=384, out_features=384, bias=True)
        (proj_drop): Dropout(p=0.0, inplace=False)
        (softmax): Softmax(dim=-1)
      )
      (drop_path): DropPath()
      (norm2): LayerNorm((384,), eps=1e-05, elementwise_affine=True)
      (mlp): Mlp(
        (fc1): Linear(in_features=384, out_features=1536, bias=True)
        (act): GELU()
        (fc2): Linear(in_features=1536, out_features=384, bias=True)
        (drop): Dropout(p=0.0, inplace=False)
      )
    )
    (2): SwinTransformerBlock(
      (norm1): LayerNorm((384,), eps=1e-05, elementwise_affine=True)
      (attn): WindowAttention(
        (qkv): Linear(in_features=384, out_features=1152, bias=True)
        (attn_drop): Dropout(p=0.0, inplace=False)
        (proj): Linear(in_features=384, out_features=384, bias=True)
        (proj_drop): Dropout(p=0.0, inplace=False)
        (softmax): Softmax(dim=-1)
      )
      (drop_path): DropPath()
      (norm2): LayerNorm((384,), eps=1e-05, elementwise_affine=True)
      (mlp): Mlp(
        (fc1): Linear(in_features=384, out_features=1536, bias=True)
        (act): GELU()
        (fc2): Linear(in_features=1536, out_features=384, bias=True)
        (drop): Dropout(p=0.0, inplace=False)
      )
    )
    (3): SwinTransformerBlock(
      (norm1): LayerNorm((384,), eps=1e-05, elementwise_affine=True)
      (attn): WindowAttention(
        (qkv): Linear(in_features=384, out_features=1152, bias=True)
        (attn_drop): Dropout(p=0.0, inplace=False)
        (proj): Linear(in_features=384, out_features=384, bias=True)
        (proj_drop): Dropout(p=0.0, inplace=False)
        (softmax): Softmax(dim=-1)
      )
      (drop_path): DropPath()
      (norm2): LayerNorm((384,), eps=1e-05, elementwise_affine=True)
      (mlp): Mlp(
        (fc1): Linear(in_features=384, out_features=1536, bias=True)
        (act): GELU()
        (fc2): Linear(in_features=1536, out_features=384, bias=True)
        (drop): Dropout(p=0.0, inplace=False)
      )
    )
    (4): SwinTransformerBlock(
      (norm1): LayerNorm((384,), eps=1e-05, elementwise_affine=True)
      (attn): WindowAttention(
        (qkv): Linear(in_features=384, out_features=1152, bias=True)
        (attn_drop): Dropout(p=0.0, inplace=False)
        (proj): Linear(in_features=384, out_features=384, bias=True)
        (proj_drop): Dropout(p=0.0, inplace=False)
        (softmax): Softmax(dim=-1)
      )
      (drop_path): DropPath()
      (norm2): LayerNorm((384,), eps=1e-05, elementwise_affine=True)
      (mlp): Mlp(
        (fc1): Linear(in_features=384, out_features=1536, bias=True)
        (act): GELU()
        (fc2): Linear(in_features=1536, out_features=384, bias=True)
        (drop): Dropout(p=0.0, inplace=False)
      )
    )
    (5): SwinTransformerBlock(
      (norm1): LayerNorm((384,), eps=1e-05, elementwise_affine=True)
      (attn): WindowAttention(
        (qkv): Linear(in_features=384, out_features=1152, bias=True)
        (attn_drop): Dropout(p=0.0, inplace=False)
        (proj): Linear(in_features=384, out_features=384, bias=True)
        (proj_drop): Dropout(p=0.0, inplace=False)
        (softmax): Softmax(dim=-1)
      )
      (drop_path): DropPath()
      (norm2): LayerNorm((384,), eps=1e-05, elementwise_affine=True)
      (mlp): Mlp(
        (fc1): Linear(in_features=384, out_features=1536, bias=True)
        (act): GELU()
        (fc2): Linear(in_features=1536, out_features=384, bias=True)
        (drop): Dropout(p=0.0, inplace=False)
      )
    )
  )
  (downsample): PatchMerging(
    (reduction): Linear(in_features=1536, out_features=768, bias=False)
    (norm): LayerNorm((1536,), eps=1e-05, elementwise_affine=True)
  )
)
--------------------------------------------------
3 BasicLayer(
  (blocks): ModuleList(
    (0): SwinTransformerBlock(
      (norm1): LayerNorm((768,), eps=1e-05, elementwise_affine=True)
      (attn): WindowAttention(
        (qkv): Linear(in_features=768, out_features=2304, bias=True)
        (attn_drop): Dropout(p=0.0, inplace=False)
        (proj): Linear(in_features=768, out_features=768, bias=True)
        (proj_drop): Dropout(p=0.0, inplace=False)
        (softmax): Softmax(dim=-1)
      )
      (drop_path): DropPath()
      (norm2): LayerNorm((768,), eps=1e-05, elementwise_affine=True)
      (mlp): Mlp(
        (fc1): Linear(in_features=768, out_features=3072, bias=True)
        (act): GELU()
        (fc2): Linear(in_features=3072, out_features=768, bias=True)
        (drop): Dropout(p=0.0, inplace=False)
      )
    )
    (1): SwinTransformerBlock(
      (norm1): LayerNorm((768,), eps=1e-05, elementwise_affine=True)
      (attn): WindowAttention(
        (qkv): Linear(in_features=768, out_features=2304, bias=True)
        (attn_drop): Dropout(p=0.0, inplace=False)
        (proj): Linear(in_features=768, out_features=768, bias=True)
        (proj_drop): Dropout(p=0.0, inplace=False)
        (softmax): Softmax(dim=-1)
      )
      (drop_path): DropPath()
      (norm2): LayerNorm((768,), eps=1e-05, elementwise_affine=True)
      (mlp): Mlp(
        (fc1): Linear(in_features=768, out_features=3072, bias=True)
        (act): GELU()
        (fc2): Linear(in_features=3072, out_features=768, bias=True)
        (drop): Dropout(p=0.0, inplace=False)
      )
    )
  )
)
torch.Size([4, 256, 100, 100])
torch.Size([4, 512, 50, 50])
torch.Size([4, 1024, 25, 25])
torch.Size([4, 512, 25, 25])
torch.Size([4, 512, 50, 50])
coco_CSPDarknet-s_640x640| train: total_epoch[1/300] total_batch[9/9000] batch[9/30] |size: 4x3x800x800 |lr: 0.00000225 |Tot: 0:00:11 |ETA: 0:00:29 |loss 20.9193 |conf_loss 14.5575 |cls_loss 1.5910 |iou_loss 4.7708 |num_fg 0.9756 |Data 0.487s |Batch 0.951s
xxxxxxxxxxxx: torch.Size([4, 3, 800, 800])
xxxxx:projjjjjjjjjjjjj: torch.Size([4, 96, 200, 200])
flatten: torch.Size([4, 40000, 96])
pos_drop: torch.Size([4, 40000, 96])
--------------------------------------------------
0 BasicLayer(
  (blocks): ModuleList(
    (0): SwinTransformerBlock(
      (norm1): LayerNorm((96,), eps=1e-05, elementwise_affine=True)
      (attn): WindowAttention(
        (qkv): Linear(in_features=96, out_features=288, bias=True)
        (attn_drop): Dropout(p=0.0, inplace=False)
        (proj): Linear(in_features=96, out_features=96, bias=True)
        (proj_drop): Dropout(p=0.0, inplace=False)
        (softmax): Softmax(dim=-1)
      )
      (drop_path): Identity()
      (norm2): LayerNorm((96,), eps=1e-05, elementwise_affine=True)
      (mlp): Mlp(
        (fc1): Linear(in_features=96, out_features=384, bias=True)
        (act): GELU()
        (fc2): Linear(in_features=384, out_features=96, bias=True)
        (drop): Dropout(p=0.0, inplace=False)
      )
    )
    (1): SwinTransformerBlock(
      (norm1): LayerNorm((96,), eps=1e-05, elementwise_affine=True)
      (attn): WindowAttention(
        (qkv): Linear(in_features=96, out_features=288, bias=True)
        (attn_drop): Dropout(p=0.0, inplace=False)
        (proj): Linear(in_features=96, out_features=96, bias=True)
        (proj_drop): Dropout(p=0.0, inplace=False)
        (softmax): Softmax(dim=-1)
      )
      (drop_path): DropPath()
      (norm2): LayerNorm((96,), eps=1e-05, elementwise_affine=True)
      (mlp): Mlp(
        (fc1): Linear(in_features=96, out_features=384, bias=True)
        (act): GELU()
        (fc2): Linear(in_features=384, out_features=96, bias=True)
        (drop): Dropout(p=0.0, inplace=False)
      )
    )
  )
  (downsample): PatchMerging(
    (reduction): Linear(in_features=384, out_features=192, bias=False)
    (norm): LayerNorm((384,), eps=1e-05, elementwise_affine=True)
  )
)
--------------------------------------------------
1 BasicLayer(
  (blocks): ModuleList(
    (0): SwinTransformerBlock(
      (norm1): LayerNorm((192,), eps=1e-05, elementwise_affine=True)
      (attn): WindowAttention(
        (qkv): Linear(in_features=192, out_features=576, bias=True)
        (attn_drop): Dropout(p=0.0, inplace=False)
        (proj): Linear(in_features=192, out_features=192, bias=True)
        (proj_drop): Dropout(p=0.0, inplace=False)
        (softmax): Softmax(dim=-1)
      )
      (drop_path): DropPath()
      (norm2): LayerNorm((192,), eps=1e-05, elementwise_affine=True)
      (mlp): Mlp(
        (fc1): Linear(in_features=192, out_features=768, bias=True)
        (act): GELU()
        (fc2): Linear(in_features=768, out_features=192, bias=True)
        (drop): Dropout(p=0.0, inplace=False)
      )
    )
    (1): SwinTransformerBlock(
      (norm1): LayerNorm((192,), eps=1e-05, elementwise_affine=True)
      (attn): WindowAttention(
        (qkv): Linear(in_features=192, out_features=576, bias=True)
        (attn_drop): Dropout(p=0.0, inplace=False)
        (proj): Linear(in_features=192, out_features=192, bias=True)
        (proj_drop): Dropout(p=0.0, inplace=False)
        (softmax): Softmax(dim=-1)
      )
      (drop_path): DropPath()
      (norm2): LayerNorm((192,), eps=1e-05, elementwise_affine=True)
      (mlp): Mlp(
        (fc1): Linear(in_features=192, out_features=768, bias=True)
        (act): GELU()
        (fc2): Linear(in_features=768, out_features=192, bias=True)
        (drop): Dropout(p=0.0, inplace=False)
      )
    )
  )
  (downsample): PatchMerging(
    (reduction): Linear(in_features=768, out_features=384, bias=False)
    (norm): LayerNorm((768,), eps=1e-05, elementwise_affine=True)
  )
)
--------------------------------------------------
2 BasicLayer(
  (blocks): ModuleList(
    (0): SwinTransformerBlock(
      (norm1): LayerNorm((384,), eps=1e-05, elementwise_affine=True)
      (attn): WindowAttention(
        (qkv): Linear(in_features=384, out_features=1152, bias=True)
        (attn_drop): Dropout(p=0.0, inplace=False)
        (proj): Linear(in_features=384, out_features=384, bias=True)
        (proj_drop): Dropout(p=0.0, inplace=False)
        (softmax): Softmax(dim=-1)
      )
      (drop_path): DropPath()
      (norm2): LayerNorm((384,), eps=1e-05, elementwise_affine=True)
      (mlp): Mlp(
        (fc1): Linear(in_features=384, out_features=1536, bias=True)
        (act): GELU()
        (fc2): Linear(in_features=1536, out_features=384, bias=True)
        (drop): Dropout(p=0.0, inplace=False)
      )
    )
    (1): SwinTransformerBlock(
      (norm1): LayerNorm((384,), eps=1e-05, elementwise_affine=True)
      (attn): WindowAttention(
        (qkv): Linear(in_features=384, out_features=1152, bias=True)
        (attn_drop): Dropout(p=0.0, inplace=False)
        (proj): Linear(in_features=384, out_features=384, bias=True)
        (proj_drop): Dropout(p=0.0, inplace=False)
        (softmax): Softmax(dim=-1)
      )
      (drop_path): DropPath()
      (norm2): LayerNorm((384,), eps=1e-05, elementwise_affine=True)
      (mlp): Mlp(
        (fc1): Linear(in_features=384, out_features=1536, bias=True)
        (act): GELU()
        (fc2): Linear(in_features=1536, out_features=384, bias=True)
        (drop): Dropout(p=0.0, inplace=False)
      )
    )
    (2): SwinTransformerBlock(
      (norm1): LayerNorm((384,), eps=1e-05, elementwise_affine=True)
      (attn): WindowAttention(
        (qkv): Linear(in_features=384, out_features=1152, bias=True)
        (attn_drop): Dropout(p=0.0, inplace=False)
        (proj): Linear(in_features=384, out_features=384, bias=True)
        (proj_drop): Dropout(p=0.0, inplace=False)
        (softmax): Softmax(dim=-1)
      )
      (drop_path): DropPath()
      (norm2): LayerNorm((384,), eps=1e-05, elementwise_affine=True)
      (mlp): Mlp(
        (fc1): Linear(in_features=384, out_features=1536, bias=True)
        (act): GELU()
        (fc2): Linear(in_features=1536, out_features=384, bias=True)
        (drop): Dropout(p=0.0, inplace=False)
      )
    )
    (3): SwinTransformerBlock(
      (norm1): LayerNorm((384,), eps=1e-05, elementwise_affine=True)
      (attn): WindowAttention(
        (qkv): Linear(in_features=384, out_features=1152, bias=True)
        (attn_drop): Dropout(p=0.0, inplace=False)
        (proj): Linear(in_features=384, out_features=384, bias=True)
        (proj_drop): Dropout(p=0.0, inplace=False)
        (softmax): Softmax(dim=-1)
      )
      (drop_path): DropPath()
      (norm2): LayerNorm((384,), eps=1e-05, elementwise_affine=True)
      (mlp): Mlp(
        (fc1): Linear(in_features=384, out_features=1536, bias=True)
        (act): GELU()
        (fc2): Linear(in_features=1536, out_features=384, bias=True)
        (drop): Dropout(p=0.0, inplace=False)
      )
    )
    (4): SwinTransformerBlock(
      (norm1): LayerNorm((384,), eps=1e-05, elementwise_affine=True)
      (attn): WindowAttention(
        (qkv): Linear(in_features=384, out_features=1152, bias=True)
        (attn_drop): Dropout(p=0.0, inplace=False)
        (proj): Linear(in_features=384, out_features=384, bias=True)
        (proj_drop): Dropout(p=0.0, inplace=False)
        (softmax): Softmax(dim=-1)
      )
      (drop_path): DropPath()
      (norm2): LayerNorm((384,), eps=1e-05, elementwise_affine=True)
      (mlp): Mlp(
        (fc1): Linear(in_features=384, out_features=1536, bias=True)
        (act): GELU()
        (fc2): Linear(in_features=1536, out_features=384, bias=True)
        (drop): Dropout(p=0.0, inplace=False)
      )
    )
    (5): SwinTransformerBlock(
      (norm1): LayerNorm((384,), eps=1e-05, elementwise_affine=True)
      (attn): WindowAttention(
        (qkv): Linear(in_features=384, out_features=1152, bias=True)
        (attn_drop): Dropout(p=0.0, inplace=False)
        (proj): Linear(in_features=384, out_features=384, bias=True)
        (proj_drop): Dropout(p=0.0, inplace=False)
        (softmax): Softmax(dim=-1)
      )
      (drop_path): DropPath()
      (norm2): LayerNorm((384,), eps=1e-05, elementwise_affine=True)
      (mlp): Mlp(
        (fc1): Linear(in_features=384, out_features=1536, bias=True)
        (act): GELU()
        (fc2): Linear(in_features=1536, out_features=384, bias=True)
        (drop): Dropout(p=0.0, inplace=False)
      )
    )
  )
  (downsample): PatchMerging(
    (reduction): Linear(in_features=1536, out_features=768, bias=False)
    (norm): LayerNorm((1536,), eps=1e-05, elementwise_affine=True)
  )
)
--------------------------------------------------
3 BasicLayer(
  (blocks): ModuleList(
    (0): SwinTransformerBlock(
      (norm1): LayerNorm((768,), eps=1e-05, elementwise_affine=True)
      (attn): WindowAttention(
        (qkv): Linear(in_features=768, out_features=2304, bias=True)
        (attn_drop): Dropout(p=0.0, inplace=False)
        (proj): Linear(in_features=768, out_features=768, bias=True)
        (proj_drop): Dropout(p=0.0, inplace=False)
        (softmax): Softmax(dim=-1)
      )
      (drop_path): DropPath()
      (norm2): LayerNorm((768,), eps=1e-05, elementwise_affine=True)
      (mlp): Mlp(
        (fc1): Linear(in_features=768, out_features=3072, bias=True)
        (act): GELU()
        (fc2): Linear(in_features=3072, out_features=768, bias=True)
        (drop): Dropout(p=0.0, inplace=False)
      )
    )
    (1): SwinTransformerBlock(
      (norm1): LayerNorm((768,), eps=1e-05, elementwise_affine=True)
      (attn): WindowAttention(
        (qkv): Linear(in_features=768, out_features=2304, bias=True)
        (attn_drop): Dropout(p=0.0, inplace=False)
        (proj): Linear(in_features=768, out_features=768, bias=True)
        (proj_drop): Dropout(p=0.0, inplace=False)
        (softmax): Softmax(dim=-1)
      )
      (drop_path): DropPath()
      (norm2): LayerNorm((768,), eps=1e-05, elementwise_affine=True)
      (mlp): Mlp(
        (fc1): Linear(in_features=768, out_features=3072, bias=True)
        (act): GELU()
        (fc2): Linear(in_features=3072, out_features=768, bias=True)
        (drop): Dropout(p=0.0, inplace=False)
      )
    )
  )
)
torch.Size([4, 256, 100, 100])
torch.Size([4, 512, 50, 50])
torch.Size([4, 1024, 25, 25])
torch.Size([4, 512, 25, 25])
torch.Size([4, 512, 50, 50])
coco_CSPDarknet-s_640x640| train: total_epoch[1/300] total_batch[10/9000] batch[10/30] |size: 4x3x800x800 |lr: 0.00000278 |Tot: 0:00:12 |ETA: 0:00:27 |loss 20.8640 |conf_loss 14.4883 |cls_loss 1.6127 |iou_loss 4.7631 |num_fg 0.9780 |Data 0.389s |Batch 0.836s
xxxxxxxxxxxx: torch.Size([4, 3, 768, 768])
xxxxx:projjjjjjjjjjjjj: torch.Size([4, 96, 192, 192])
flatten: torch.Size([4, 36864, 96])
pos_drop: torch.Size([4, 36864, 96])
--------------------------------------------------
0 BasicLayer(
  (blocks): ModuleList(
    (0): SwinTransformerBlock(
      (norm1): LayerNorm((96,), eps=1e-05, elementwise_affine=True)
      (attn): WindowAttention(
        (qkv): Linear(in_features=96, out_features=288, bias=True)
        (attn_drop): Dropout(p=0.0, inplace=False)
        (proj): Linear(in_features=96, out_features=96, bias=True)
        (proj_drop): Dropout(p=0.0, inplace=False)
        (softmax): Softmax(dim=-1)
      )
      (drop_path): Identity()
      (norm2): LayerNorm((96,), eps=1e-05, elementwise_affine=True)
      (mlp): Mlp(
        (fc1): Linear(in_features=96, out_features=384, bias=True)
        (act): GELU()
        (fc2): Linear(in_features=384, out_features=96, bias=True)
        (drop): Dropout(p=0.0, inplace=False)
      )
    )
    (1): SwinTransformerBlock(
      (norm1): LayerNorm((96,), eps=1e-05, elementwise_affine=True)
      (attn): WindowAttention(
        (qkv): Linear(in_features=96, out_features=288, bias=True)
        (attn_drop): Dropout(p=0.0, inplace=False)
        (proj): Linear(in_features=96, out_features=96, bias=True)
        (proj_drop): Dropout(p=0.0, inplace=False)
        (softmax): Softmax(dim=-1)
      )
      (drop_path): DropPath()
      (norm2): LayerNorm((96,), eps=1e-05, elementwise_affine=True)
      (mlp): Mlp(
        (fc1): Linear(in_features=96, out_features=384, bias=True)
        (act): GELU()
        (fc2): Linear(in_features=384, out_features=96, bias=True)
        (drop): Dropout(p=0.0, inplace=False)
      )
    )
  )
  (downsample): PatchMerging(
    (reduction): Linear(in_features=384, out_features=192, bias=False)
    (norm): LayerNorm((384,), eps=1e-05, elementwise_affine=True)
  )
)
--------------------------------------------------
1 BasicLayer(
  (blocks): ModuleList(
    (0): SwinTransformerBlock(
      (norm1): LayerNorm((192,), eps=1e-05, elementwise_affine=True)
      (attn): WindowAttention(
        (qkv): Linear(in_features=192, out_features=576, bias=True)
        (attn_drop): Dropout(p=0.0, inplace=False)
        (proj): Linear(in_features=192, out_features=192, bias=True)
        (proj_drop): Dropout(p=0.0, inplace=False)
        (softmax): Softmax(dim=-1)
      )
      (drop_path): DropPath()
      (norm2): LayerNorm((192,), eps=1e-05, elementwise_affine=True)
      (mlp): Mlp(
        (fc1): Linear(in_features=192, out_features=768, bias=True)
        (act): GELU()
        (fc2): Linear(in_features=768, out_features=192, bias=True)
        (drop): Dropout(p=0.0, inplace=False)
      )
    )
    (1): SwinTransformerBlock(
      (norm1): LayerNorm((192,), eps=1e-05, elementwise_affine=True)
      (attn): WindowAttention(
        (qkv): Linear(in_features=192, out_features=576, bias=True)
        (attn_drop): Dropout(p=0.0, inplace=False)
        (proj): Linear(in_features=192, out_features=192, bias=True)
        (proj_drop): Dropout(p=0.0, inplace=False)
        (softmax): Softmax(dim=-1)
      )
      (drop_path): DropPath()
      (norm2): LayerNorm((192,), eps=1e-05, elementwise_affine=True)
      (mlp): Mlp(
        (fc1): Linear(in_features=192, out_features=768, bias=True)
        (act): GELU()
        (fc2): Linear(in_features=768, out_features=192, bias=True)
        (drop): Dropout(p=0.0, inplace=False)
      )
    )
  )
  (downsample): PatchMerging(
    (reduction): Linear(in_features=768, out_features=384, bias=False)
    (norm): LayerNorm((768,), eps=1e-05, elementwise_affine=True)
  )
)
--------------------------------------------------
2 BasicLayer(
  (blocks): ModuleList(
    (0): SwinTransformerBlock(
      (norm1): LayerNorm((384,), eps=1e-05, elementwise_affine=True)
      (attn): WindowAttention(
        (qkv): Linear(in_features=384, out_features=1152, bias=True)
        (attn_drop): Dropout(p=0.0, inplace=False)
        (proj): Linear(in_features=384, out_features=384, bias=True)
        (proj_drop): Dropout(p=0.0, inplace=False)
        (softmax): Softmax(dim=-1)
      )
      (drop_path): DropPath()
      (norm2): LayerNorm((384,), eps=1e-05, elementwise_affine=True)
      (mlp): Mlp(
        (fc1): Linear(in_features=384, out_features=1536, bias=True)
        (act): GELU()
        (fc2): Linear(in_features=1536, out_features=384, bias=True)
        (drop): Dropout(p=0.0, inplace=False)
      )
    )
    (1): SwinTransformerBlock(
      (norm1): LayerNorm((384,), eps=1e-05, elementwise_affine=True)
      (attn): WindowAttention(
        (qkv): Linear(in_features=384, out_features=1152, bias=True)
        (attn_drop): Dropout(p=0.0, inplace=False)
        (proj): Linear(in_features=384, out_features=384, bias=True)
        (proj_drop): Dropout(p=0.0, inplace=False)
        (softmax): Softmax(dim=-1)
      )
      (drop_path): DropPath()
      (norm2): LayerNorm((384,), eps=1e-05, elementwise_affine=True)
      (mlp): Mlp(
        (fc1): Linear(in_features=384, out_features=1536, bias=True)
        (act): GELU()
        (fc2): Linear(in_features=1536, out_features=384, bias=True)
        (drop): Dropout(p=0.0, inplace=False)
      )
    )
    (2): SwinTransformerBlock(
      (norm1): LayerNorm((384,), eps=1e-05, elementwise_affine=True)
      (attn): WindowAttention(
        (qkv): Linear(in_features=384, out_features=1152, bias=True)
        (attn_drop): Dropout(p=0.0, inplace=False)
        (proj): Linear(in_features=384, out_features=384, bias=True)
        (proj_drop): Dropout(p=0.0, inplace=False)
        (softmax): Softmax(dim=-1)
      )
      (drop_path): DropPath()
      (norm2): LayerNorm((384,), eps=1e-05, elementwise_affine=True)
      (mlp): Mlp(
        (fc1): Linear(in_features=384, out_features=1536, bias=True)
        (act): GELU()
        (fc2): Linear(in_features=1536, out_features=384, bias=True)
        (drop): Dropout(p=0.0, inplace=False)
      )
    )
    (3): SwinTransformerBlock(
      (norm1): LayerNorm((384,), eps=1e-05, elementwise_affine=True)
      (attn): WindowAttention(
        (qkv): Linear(in_features=384, out_features=1152, bias=True)
        (attn_drop): Dropout(p=0.0, inplace=False)
        (proj): Linear(in_features=384, out_features=384, bias=True)
        (proj_drop): Dropout(p=0.0, inplace=False)
        (softmax): Softmax(dim=-1)
      )
      (drop_path): DropPath()
      (norm2): LayerNorm((384,), eps=1e-05, elementwise_affine=True)
      (mlp): Mlp(
        (fc1): Linear(in_features=384, out_features=1536, bias=True)
        (act): GELU()
        (fc2): Linear(in_features=1536, out_features=384, bias=True)
        (drop): Dropout(p=0.0, inplace=False)
      )
    )
    (4): SwinTransformerBlock(
      (norm1): LayerNorm((384,), eps=1e-05, elementwise_affine=True)
      (attn): WindowAttention(
        (qkv): Linear(in_features=384, out_features=1152, bias=True)
        (attn_drop): Dropout(p=0.0, inplace=False)
        (proj): Linear(in_features=384, out_features=384, bias=True)
        (proj_drop): Dropout(p=0.0, inplace=False)
        (softmax): Softmax(dim=-1)
      )
      (drop_path): DropPath()
      (norm2): LayerNorm((384,), eps=1e-05, elementwise_affine=True)
      (mlp): Mlp(
        (fc1): Linear(in_features=384, out_features=1536, bias=True)
        (act): GELU()
        (fc2): Linear(in_features=1536, out_features=384, bias=True)
        (drop): Dropout(p=0.0, inplace=False)
      )
    )
    (5): SwinTransformerBlock(
      (norm1): LayerNorm((384,), eps=1e-05, elementwise_affine=True)
      (attn): WindowAttention(
        (qkv): Linear(in_features=384, out_features=1152, bias=True)
        (attn_drop): Dropout(p=0.0, inplace=False)
        (proj): Linear(in_features=384, out_features=384, bias=True)
        (proj_drop): Dropout(p=0.0, inplace=False)
        (softmax): Softmax(dim=-1)
      )
      (drop_path): DropPath()
      (norm2): LayerNorm((384,), eps=1e-05, elementwise_affine=True)
      (mlp): Mlp(
        (fc1): Linear(in_features=384, out_features=1536, bias=True)
        (act): GELU()
        (fc2): Linear(in_features=1536, out_features=384, bias=True)
        (drop): Dropout(p=0.0, inplace=False)
      )
    )
  )
  (downsample): PatchMerging(
    (reduction): Linear(in_features=1536, out_features=768, bias=False)
    (norm): LayerNorm((1536,), eps=1e-05, elementwise_affine=True)
  )
)
--------------------------------------------------
3 BasicLayer(
  (blocks): ModuleList(
    (0): SwinTransformerBlock(
      (norm1): LayerNorm((768,), eps=1e-05, elementwise_affine=True)
      (attn): WindowAttention(
        (qkv): Linear(in_features=768, out_features=2304, bias=True)
        (attn_drop): Dropout(p=0.0, inplace=False)
        (proj): Linear(in_features=768, out_features=768, bias=True)
        (proj_drop): Dropout(p=0.0, inplace=False)
        (softmax): Softmax(dim=-1)
      )
      (drop_path): DropPath()
      (norm2): LayerNorm((768,), eps=1e-05, elementwise_affine=True)
      (mlp): Mlp(
        (fc1): Linear(in_features=768, out_features=3072, bias=True)
        (act): GELU()
        (fc2): Linear(in_features=3072, out_features=768, bias=True)
        (drop): Dropout(p=0.0, inplace=False)
      )
    )
    (1): SwinTransformerBlock(
      (norm1): LayerNorm((768,), eps=1e-05, elementwise_affine=True)
      (attn): WindowAttention(
        (qkv): Linear(in_features=768, out_features=2304, bias=True)
        (attn_drop): Dropout(p=0.0, inplace=False)
        (proj): Linear(in_features=768, out_features=768, bias=True)
        (proj_drop): Dropout(p=0.0, inplace=False)
        (softmax): Softmax(dim=-1)
      )
      (drop_path): DropPath()
      (norm2): LayerNorm((768,), eps=1e-05, elementwise_affine=True)
      (mlp): Mlp(
        (fc1): Linear(in_features=768, out_features=3072, bias=True)
        (act): GELU()
        (fc2): Linear(in_features=3072, out_features=768, bias=True)
        (drop): Dropout(p=0.0, inplace=False)
      )
    )
  )
)
torch.Size([4, 256, 96, 96])
torch.Size([4, 512, 48, 48])
torch.Size([4, 1024, 24, 24])
torch.Size([4, 512, 24, 24])
torch.Size([4, 512, 48, 48])
coco_CSPDarknet-s_640x640| train: total_epoch[1/300] total_batch[11/9000] batch[11/30] |size: 4x3x768x768 |lr: 0.00000336 |Tot: 0:00:13 |ETA: 0:00:25 |loss 20.7218 |conf_loss 14.3370 |cls_loss 1.6223 |iou_loss 4.7625 |num_fg 0.9832 |Data 0.301s |Batch 1.120s
xxxxxxxxxxxx: torch.Size([4, 3, 768, 768])
xxxxx:projjjjjjjjjjjjj: torch.Size([4, 96, 192, 192])
flatten: torch.Size([4, 36864, 96])
pos_drop: torch.Size([4, 36864, 96])
--------------------------------------------------
0 BasicLayer(
  (blocks): ModuleList(
    (0): SwinTransformerBlock(
      (norm1): LayerNorm((96,), eps=1e-05, elementwise_affine=True)
      (attn): WindowAttention(
        (qkv): Linear(in_features=96, out_features=288, bias=True)
        (attn_drop): Dropout(p=0.0, inplace=False)
        (proj): Linear(in_features=96, out_features=96, bias=True)
        (proj_drop): Dropout(p=0.0, inplace=False)
        (softmax): Softmax(dim=-1)
      )
      (drop_path): Identity()
      (norm2): LayerNorm((96,), eps=1e-05, elementwise_affine=True)
      (mlp): Mlp(
        (fc1): Linear(in_features=96, out_features=384, bias=True)
        (act): GELU()
        (fc2): Linear(in_features=384, out_features=96, bias=True)
        (drop): Dropout(p=0.0, inplace=False)
      )
    )
    (1): SwinTransformerBlock(
      (norm1): LayerNorm((96,), eps=1e-05, elementwise_affine=True)
      (attn): WindowAttention(
        (qkv): Linear(in_features=96, out_features=288, bias=True)
        (attn_drop): Dropout(p=0.0, inplace=False)
        (proj): Linear(in_features=96, out_features=96, bias=True)
        (proj_drop): Dropout(p=0.0, inplace=False)
        (softmax): Softmax(dim=-1)
      )
      (drop_path): DropPath()
      (norm2): LayerNorm((96,), eps=1e-05, elementwise_affine=True)
      (mlp): Mlp(
        (fc1): Linear(in_features=96, out_features=384, bias=True)
        (act): GELU()
        (fc2): Linear(in_features=384, out_features=96, bias=True)
        (drop): Dropout(p=0.0, inplace=False)
      )
    )
  )
  (downsample): PatchMerging(
    (reduction): Linear(in_features=384, out_features=192, bias=False)
    (norm): LayerNorm((384,), eps=1e-05, elementwise_affine=True)
  )
)
--------------------------------------------------
1 BasicLayer(
  (blocks): ModuleList(
    (0): SwinTransformerBlock(
      (norm1): LayerNorm((192,), eps=1e-05, elementwise_affine=True)
      (attn): WindowAttention(
        (qkv): Linear(in_features=192, out_features=576, bias=True)
        (attn_drop): Dropout(p=0.0, inplace=False)
        (proj): Linear(in_features=192, out_features=192, bias=True)
        (proj_drop): Dropout(p=0.0, inplace=False)
        (softmax): Softmax(dim=-1)
      )
      (drop_path): DropPath()
      (norm2): LayerNorm((192,), eps=1e-05, elementwise_affine=True)
      (mlp): Mlp(
        (fc1): Linear(in_features=192, out_features=768, bias=True)
        (act): GELU()
        (fc2): Linear(in_features=768, out_features=192, bias=True)
        (drop): Dropout(p=0.0, inplace=False)
      )
    )
    (1): SwinTransformerBlock(
      (norm1): LayerNorm((192,), eps=1e-05, elementwise_affine=True)
      (attn): WindowAttention(
        (qkv): Linear(in_features=192, out_features=576, bias=True)
        (attn_drop): Dropout(p=0.0, inplace=False)
        (proj): Linear(in_features=192, out_features=192, bias=True)
        (proj_drop): Dropout(p=0.0, inplace=False)
        (softmax): Softmax(dim=-1)
      )
      (drop_path): DropPath()
      (norm2): LayerNorm((192,), eps=1e-05, elementwise_affine=True)
      (mlp): Mlp(
        (fc1): Linear(in_features=192, out_features=768, bias=True)
        (act): GELU()
        (fc2): Linear(in_features=768, out_features=192, bias=True)
        (drop): Dropout(p=0.0, inplace=False)
      )
    )
  )
  (downsample): PatchMerging(
    (reduction): Linear(in_features=768, out_features=384, bias=False)
    (norm): LayerNorm((768,), eps=1e-05, elementwise_affine=True)
  )
)
--------------------------------------------------
2 BasicLayer(
  (blocks): ModuleList(
    (0): SwinTransformerBlock(
      (norm1): LayerNorm((384,), eps=1e-05, elementwise_affine=True)
      (attn): WindowAttention(
        (qkv): Linear(in_features=384, out_features=1152, bias=True)
        (attn_drop): Dropout(p=0.0, inplace=False)
        (proj): Linear(in_features=384, out_features=384, bias=True)
        (proj_drop): Dropout(p=0.0, inplace=False)
        (softmax): Softmax(dim=-1)
      )
      (drop_path): DropPath()
      (norm2): LayerNorm((384,), eps=1e-05, elementwise_affine=True)
      (mlp): Mlp(
        (fc1): Linear(in_features=384, out_features=1536, bias=True)
        (act): GELU()
        (fc2): Linear(in_features=1536, out_features=384, bias=True)
        (drop): Dropout(p=0.0, inplace=False)
      )
    )
    (1): SwinTransformerBlock(
      (norm1): LayerNorm((384,), eps=1e-05, elementwise_affine=True)
      (attn): WindowAttention(
        (qkv): Linear(in_features=384, out_features=1152, bias=True)
        (attn_drop): Dropout(p=0.0, inplace=False)
        (proj): Linear(in_features=384, out_features=384, bias=True)
        (proj_drop): Dropout(p=0.0, inplace=False)
        (softmax): Softmax(dim=-1)
      )
      (drop_path): DropPath()
      (norm2): LayerNorm((384,), eps=1e-05, elementwise_affine=True)
      (mlp): Mlp(
        (fc1): Linear(in_features=384, out_features=1536, bias=True)
        (act): GELU()
        (fc2): Linear(in_features=1536, out_features=384, bias=True)
        (drop): Dropout(p=0.0, inplace=False)
      )
    )
    (2): SwinTransformerBlock(
      (norm1): LayerNorm((384,), eps=1e-05, elementwise_affine=True)
      (attn): WindowAttention(
        (qkv): Linear(in_features=384, out_features=1152, bias=True)
        (attn_drop): Dropout(p=0.0, inplace=False)
        (proj): Linear(in_features=384, out_features=384, bias=True)
        (proj_drop): Dropout(p=0.0, inplace=False)
        (softmax): Softmax(dim=-1)
      )
      (drop_path): DropPath()
      (norm2): LayerNorm((384,), eps=1e-05, elementwise_affine=True)
      (mlp): Mlp(
        (fc1): Linear(in_features=384, out_features=1536, bias=True)
        (act): GELU()
        (fc2): Linear(in_features=1536, out_features=384, bias=True)
        (drop): Dropout(p=0.0, inplace=False)
      )
    )
    (3): SwinTransformerBlock(
      (norm1): LayerNorm((384,), eps=1e-05, elementwise_affine=True)
      (attn): WindowAttention(
        (qkv): Linear(in_features=384, out_features=1152, bias=True)
        (attn_drop): Dropout(p=0.0, inplace=False)
        (proj): Linear(in_features=384, out_features=384, bias=True)
        (proj_drop): Dropout(p=0.0, inplace=False)
        (softmax): Softmax(dim=-1)
      )
      (drop_path): DropPath()
      (norm2): LayerNorm((384,), eps=1e-05, elementwise_affine=True)
      (mlp): Mlp(
        (fc1): Linear(in_features=384, out_features=1536, bias=True)
        (act): GELU()
        (fc2): Linear(in_features=1536, out_features=384, bias=True)
        (drop): Dropout(p=0.0, inplace=False)
      )
    )
    (4): SwinTransformerBlock(
      (norm1): LayerNorm((384,), eps=1e-05, elementwise_affine=True)
      (attn): WindowAttention(
        (qkv): Linear(in_features=384, out_features=1152, bias=True)
        (attn_drop): Dropout(p=0.0, inplace=False)
        (proj): Linear(in_features=384, out_features=384, bias=True)
        (proj_drop): Dropout(p=0.0, inplace=False)
        (softmax): Softmax(dim=-1)
      )
      (drop_path): DropPath()
      (norm2): LayerNorm((384,), eps=1e-05, elementwise_affine=True)
      (mlp): Mlp(
        (fc1): Linear(in_features=384, out_features=1536, bias=True)
        (act): GELU()
        (fc2): Linear(in_features=1536, out_features=384, bias=True)
        (drop): Dropout(p=0.0, inplace=False)
      )
    )
    (5): SwinTransformerBlock(
      (norm1): LayerNorm((384,), eps=1e-05, elementwise_affine=True)
      (attn): WindowAttention(
        (qkv): Linear(in_features=384, out_features=1152, bias=True)
        (attn_drop): Dropout(p=0.0, inplace=False)
        (proj): Linear(in_features=384, out_features=384, bias=True)
        (proj_drop): Dropout(p=0.0, inplace=False)
        (softmax): Softmax(dim=-1)
      )
      (drop_path): DropPath()
      (norm2): LayerNorm((384,), eps=1e-05, elementwise_affine=True)
      (mlp): Mlp(
        (fc1): Linear(in_features=384, out_features=1536, bias=True)
        (act): GELU()
        (fc2): Linear(in_features=1536, out_features=384, bias=True)
        (drop): Dropout(p=0.0, inplace=False)
      )
    )
  )
  (downsample): PatchMerging(
    (reduction): Linear(in_features=1536, out_features=768, bias=False)
    (norm): LayerNorm((1536,), eps=1e-05, elementwise_affine=True)
  )
)
--------------------------------------------------
3 BasicLayer(
  (blocks): ModuleList(
    (0): SwinTransformerBlock(
      (norm1): LayerNorm((768,), eps=1e-05, elementwise_affine=True)
      (attn): WindowAttention(
        (qkv): Linear(in_features=768, out_features=2304, bias=True)
        (attn_drop): Dropout(p=0.0, inplace=False)
        (proj): Linear(in_features=768, out_features=768, bias=True)
        (proj_drop): Dropout(p=0.0, inplace=False)
        (softmax): Softmax(dim=-1)
      )
      (drop_path): DropPath()
      (norm2): LayerNorm((768,), eps=1e-05, elementwise_affine=True)
      (mlp): Mlp(
        (fc1): Linear(in_features=768, out_features=3072, bias=True)
        (act): GELU()
        (fc2): Linear(in_features=3072, out_features=768, bias=True)
        (drop): Dropout(p=0.0, inplace=False)
      )
    )
    (1): SwinTransformerBlock(
      (norm1): LayerNorm((768,), eps=1e-05, elementwise_affine=True)
      (attn): WindowAttention(
        (qkv): Linear(in_features=768, out_features=2304, bias=True)
        (attn_drop): Dropout(p=0.0, inplace=False)
        (proj): Linear(in_features=768, out_features=768, bias=True)
        (proj_drop): Dropout(p=0.0, inplace=False)
        (softmax): Softmax(dim=-1)
      )
      (drop_path): DropPath()
      (norm2): LayerNorm((768,), eps=1e-05, elementwise_affine=True)
      (mlp): Mlp(
        (fc1): Linear(in_features=768, out_features=3072, bias=True)
        (act): GELU()
        (fc2): Linear(in_features=3072, out_features=768, bias=True)
        (drop): Dropout(p=0.0, inplace=False)
      )
    )
  )
)
torch.Size([4, 256, 96, 96])
torch.Size([4, 512, 48, 48])
torch.Size([4, 1024, 24, 24])
torch.Size([4, 512, 24, 24])
torch.Size([4, 512, 48, 48])
coco_CSPDarknet-s_640x640| train: total_epoch[1/300] total_batch[12/9000] batch[12/30] |size: 4x3x768x768 |lr: 0.00000400 |Tot: 0:00:13 |ETA: 0:00:16 |loss 20.7144 |conf_loss 14.3193 |cls_loss 1.6361 |iou_loss 4.7591 |num_fg 0.9846 |Data 0.001s |Batch 0.441s
xxxxxxxxxxxx: torch.Size([4, 3, 768, 768])
xxxxx:projjjjjjjjjjjjj: torch.Size([4, 96, 192, 192])
flatten: torch.Size([4, 36864, 96])
pos_drop: torch.Size([4, 36864, 96])
--------------------------------------------------
0 BasicLayer(
  (blocks): ModuleList(
    (0): SwinTransformerBlock(
      (norm1): LayerNorm((96,), eps=1e-05, elementwise_affine=True)
      (attn): WindowAttention(
        (qkv): Linear(in_features=96, out_features=288, bias=True)
        (attn_drop): Dropout(p=0.0, inplace=False)
        (proj): Linear(in_features=96, out_features=96, bias=True)
        (proj_drop): Dropout(p=0.0, inplace=False)
        (softmax): Softmax(dim=-1)
      )
      (drop_path): Identity()
      (norm2): LayerNorm((96,), eps=1e-05, elementwise_affine=True)
      (mlp): Mlp(
        (fc1): Linear(in_features=96, out_features=384, bias=True)
        (act): GELU()
        (fc2): Linear(in_features=384, out_features=96, bias=True)
        (drop): Dropout(p=0.0, inplace=False)
      )
    )
    (1): SwinTransformerBlock(
      (norm1): LayerNorm((96,), eps=1e-05, elementwise_affine=True)
      (attn): WindowAttention(
        (qkv): Linear(in_features=96, out_features=288, bias=True)
        (attn_drop): Dropout(p=0.0, inplace=False)
        (proj): Linear(in_features=96, out_features=96, bias=True)
        (proj_drop): Dropout(p=0.0, inplace=False)
        (softmax): Softmax(dim=-1)
      )
      (drop_path): DropPath()
      (norm2): LayerNorm((96,), eps=1e-05, elementwise_affine=True)
      (mlp): Mlp(
        (fc1): Linear(in_features=96, out_features=384, bias=True)
        (act): GELU()
        (fc2): Linear(in_features=384, out_features=96, bias=True)
        (drop): Dropout(p=0.0, inplace=False)
      )
    )
  )
  (downsample): PatchMerging(
    (reduction): Linear(in_features=384, out_features=192, bias=False)
    (norm): LayerNorm((384,), eps=1e-05, elementwise_affine=True)
  )
)
--------------------------------------------------
1 BasicLayer(
  (blocks): ModuleList(
    (0): SwinTransformerBlock(
      (norm1): LayerNorm((192,), eps=1e-05, elementwise_affine=True)
      (attn): WindowAttention(
        (qkv): Linear(in_features=192, out_features=576, bias=True)
        (attn_drop): Dropout(p=0.0, inplace=False)
        (proj): Linear(in_features=192, out_features=192, bias=True)
        (proj_drop): Dropout(p=0.0, inplace=False)
        (softmax): Softmax(dim=-1)
      )
      (drop_path): DropPath()
      (norm2): LayerNorm((192,), eps=1e-05, elementwise_affine=True)
      (mlp): Mlp(
        (fc1): Linear(in_features=192, out_features=768, bias=True)
        (act): GELU()
        (fc2): Linear(in_features=768, out_features=192, bias=True)
        (drop): Dropout(p=0.0, inplace=False)
      )
    )
    (1): SwinTransformerBlock(
      (norm1): LayerNorm((192,), eps=1e-05, elementwise_affine=True)
      (attn): WindowAttention(
        (qkv): Linear(in_features=192, out_features=576, bias=True)
        (attn_drop): Dropout(p=0.0, inplace=False)
        (proj): Linear(in_features=192, out_features=192, bias=True)
        (proj_drop): Dropout(p=0.0, inplace=False)
        (softmax): Softmax(dim=-1)
      )
      (drop_path): DropPath()
      (norm2): LayerNorm((192,), eps=1e-05, elementwise_affine=True)
      (mlp): Mlp(
        (fc1): Linear(in_features=192, out_features=768, bias=True)
        (act): GELU()
        (fc2): Linear(in_features=768, out_features=192, bias=True)
        (drop): Dropout(p=0.0, inplace=False)
      )
    )
  )
  (downsample): PatchMerging(
    (reduction): Linear(in_features=768, out_features=384, bias=False)
    (norm): LayerNorm((768,), eps=1e-05, elementwise_affine=True)
  )
)
--------------------------------------------------
2 BasicLayer(
  (blocks): ModuleList(
    (0): SwinTransformerBlock(
      (norm1): LayerNorm((384,), eps=1e-05, elementwise_affine=True)
      (attn): WindowAttention(
        (qkv): Linear(in_features=384, out_features=1152, bias=True)
        (attn_drop): Dropout(p=0.0, inplace=False)
        (proj): Linear(in_features=384, out_features=384, bias=True)
        (proj_drop): Dropout(p=0.0, inplace=False)
        (softmax): Softmax(dim=-1)
      )
      (drop_path): DropPath()
      (norm2): LayerNorm((384,), eps=1e-05, elementwise_affine=True)
      (mlp): Mlp(
        (fc1): Linear(in_features=384, out_features=1536, bias=True)
        (act): GELU()
        (fc2): Linear(in_features=1536, out_features=384, bias=True)
        (drop): Dropout(p=0.0, inplace=False)
      )
    )
    (1): SwinTransformerBlock(
      (norm1): LayerNorm((384,), eps=1e-05, elementwise_affine=True)
      (attn): WindowAttention(
        (qkv): Linear(in_features=384, out_features=1152, bias=True)
        (attn_drop): Dropout(p=0.0, inplace=False)
        (proj): Linear(in_features=384, out_features=384, bias=True)
        (proj_drop): Dropout(p=0.0, inplace=False)
        (softmax): Softmax(dim=-1)
      )
      (drop_path): DropPath()
      (norm2): LayerNorm((384,), eps=1e-05, elementwise_affine=True)
      (mlp): Mlp(
        (fc1): Linear(in_features=384, out_features=1536, bias=True)
        (act): GELU()
        (fc2): Linear(in_features=1536, out_features=384, bias=True)
        (drop): Dropout(p=0.0, inplace=False)
      )
    )
    (2): SwinTransformerBlock(
      (norm1): LayerNorm((384,), eps=1e-05, elementwise_affine=True)
      (attn): WindowAttention(
        (qkv): Linear(in_features=384, out_features=1152, bias=True)
        (attn_drop): Dropout(p=0.0, inplace=False)
        (proj): Linear(in_features=384, out_features=384, bias=True)
        (proj_drop): Dropout(p=0.0, inplace=False)
        (softmax): Softmax(dim=-1)
      )
      (drop_path): DropPath()
      (norm2): LayerNorm((384,), eps=1e-05, elementwise_affine=True)
      (mlp): Mlp(
        (fc1): Linear(in_features=384, out_features=1536, bias=True)
        (act): GELU()
        (fc2): Linear(in_features=1536, out_features=384, bias=True)
        (drop): Dropout(p=0.0, inplace=False)
      )
    )
    (3): SwinTransformerBlock(
      (norm1): LayerNorm((384,), eps=1e-05, elementwise_affine=True)
      (attn): WindowAttention(
        (qkv): Linear(in_features=384, out_features=1152, bias=True)
        (attn_drop): Dropout(p=0.0, inplace=False)
        (proj): Linear(in_features=384, out_features=384, bias=True)
        (proj_drop): Dropout(p=0.0, inplace=False)
        (softmax): Softmax(dim=-1)
      )
      (drop_path): DropPath()
      (norm2): LayerNorm((384,), eps=1e-05, elementwise_affine=True)
      (mlp): Mlp(
        (fc1): Linear(in_features=384, out_features=1536, bias=True)
        (act): GELU()
        (fc2): Linear(in_features=1536, out_features=384, bias=True)
        (drop): Dropout(p=0.0, inplace=False)
      )
    )
    (4): SwinTransformerBlock(
      (norm1): LayerNorm((384,), eps=1e-05, elementwise_affine=True)
      (attn): WindowAttention(
        (qkv): Linear(in_features=384, out_features=1152, bias=True)
        (attn_drop): Dropout(p=0.0, inplace=False)
        (proj): Linear(in_features=384, out_features=384, bias=True)
        (proj_drop): Dropout(p=0.0, inplace=False)
        (softmax): Softmax(dim=-1)
      )
      (drop_path): DropPath()
      (norm2): LayerNorm((384,), eps=1e-05, elementwise_affine=True)
      (mlp): Mlp(
        (fc1): Linear(in_features=384, out_features=1536, bias=True)
        (act): GELU()
        (fc2): Linear(in_features=1536, out_features=384, bias=True)
        (drop): Dropout(p=0.0, inplace=False)
      )
    )
    (5): SwinTransformerBlock(
      (norm1): LayerNorm((384,), eps=1e-05, elementwise_affine=True)
      (attn): WindowAttention(
        (qkv): Linear(in_features=384, out_features=1152, bias=True)
        (attn_drop): Dropout(p=0.0, inplace=False)
        (proj): Linear(in_features=384, out_features=384, bias=True)
        (proj_drop): Dropout(p=0.0, inplace=False)
        (softmax): Softmax(dim=-1)
      )
      (drop_path): DropPath()
      (norm2): LayerNorm((384,), eps=1e-05, elementwise_affine=True)
      (mlp): Mlp(
        (fc1): Linear(in_features=384, out_features=1536, bias=True)
        (act): GELU()
        (fc2): Linear(in_features=1536, out_features=384, bias=True)
        (drop): Dropout(p=0.0, inplace=False)
      )
    )
  )
  (downsample): PatchMerging(
    (reduction): Linear(in_features=1536, out_features=768, bias=False)
    (norm): LayerNorm((1536,), eps=1e-05, elementwise_affine=True)
  )
)
--------------------------------------------------
3 BasicLayer(
  (blocks): ModuleList(
    (0): SwinTransformerBlock(
      (norm1): LayerNorm((768,), eps=1e-05, elementwise_affine=True)
      (attn): WindowAttention(
        (qkv): Linear(in_features=768, out_features=2304, bias=True)
        (attn_drop): Dropout(p=0.0, inplace=False)
        (proj): Linear(in_features=768, out_features=768, bias=True)
        (proj_drop): Dropout(p=0.0, inplace=False)
        (softmax): Softmax(dim=-1)
      )
      (drop_path): DropPath()
      (norm2): LayerNorm((768,), eps=1e-05, elementwise_affine=True)
      (mlp): Mlp(
        (fc1): Linear(in_features=768, out_features=3072, bias=True)
        (act): GELU()
        (fc2): Linear(in_features=3072, out_features=768, bias=True)
        (drop): Dropout(p=0.0, inplace=False)
      )
    )
    (1): SwinTransformerBlock(
      (norm1): LayerNorm((768,), eps=1e-05, elementwise_affine=True)
      (attn): WindowAttention(
        (qkv): Linear(in_features=768, out_features=2304, bias=True)
        (attn_drop): Dropout(p=0.0, inplace=False)
        (proj): Linear(in_features=768, out_features=768, bias=True)
        (proj_drop): Dropout(p=0.0, inplace=False)
        (softmax): Softmax(dim=-1)
      )
      (drop_path): DropPath()
      (norm2): LayerNorm((768,), eps=1e-05, elementwise_affine=True)
      (mlp): Mlp(
        (fc1): Linear(in_features=768, out_features=3072, bias=True)
        (act): GELU()
        (fc2): Linear(in_features=3072, out_features=768, bias=True)
        (drop): Dropout(p=0.0, inplace=False)
      )
    )
  )
)
torch.Size([4, 256, 96, 96])
torch.Size([4, 512, 48, 48])
torch.Size([4, 1024, 24, 24])
torch.Size([4, 512, 24, 24])
torch.Size([4, 512, 48, 48])
coco_CSPDarknet-s_640x640| train: total_epoch[1/300] total_batch[13/9000] batch[13/30] |size: 4x3x768x768 |lr: 0.00000469 |Tot: 0:00:14 |ETA: 0:00:15 |loss 20.5391 |conf_loss 14.1384 |cls_loss 1.6429 |iou_loss 4.7579 |num_fg 0.9804 |Data 0.215s |Batch 0.651s
xxxxxxxxxxxx: torch.Size([4, 3, 768, 768])
xxxxx:projjjjjjjjjjjjj: torch.Size([4, 96, 192, 192])
flatten: torch.Size([4, 36864, 96])
pos_drop: torch.Size([4, 36864, 96])
--------------------------------------------------
0 BasicLayer(
  (blocks): ModuleList(
    (0): SwinTransformerBlock(
      (norm1): LayerNorm((96,), eps=1e-05, elementwise_affine=True)
      (attn): WindowAttention(
        (qkv): Linear(in_features=96, out_features=288, bias=True)
        (attn_drop): Dropout(p=0.0, inplace=False)
        (proj): Linear(in_features=96, out_features=96, bias=True)
        (proj_drop): Dropout(p=0.0, inplace=False)
        (softmax): Softmax(dim=-1)
      )
      (drop_path): Identity()
      (norm2): LayerNorm((96,), eps=1e-05, elementwise_affine=True)
      (mlp): Mlp(
        (fc1): Linear(in_features=96, out_features=384, bias=True)
        (act): GELU()
        (fc2): Linear(in_features=384, out_features=96, bias=True)
        (drop): Dropout(p=0.0, inplace=False)
      )
    )
    (1): SwinTransformerBlock(
      (norm1): LayerNorm((96,), eps=1e-05, elementwise_affine=True)
      (attn): WindowAttention(
        (qkv): Linear(in_features=96, out_features=288, bias=True)
        (attn_drop): Dropout(p=0.0, inplace=False)
        (proj): Linear(in_features=96, out_features=96, bias=True)
        (proj_drop): Dropout(p=0.0, inplace=False)
        (softmax): Softmax(dim=-1)
      )
      (drop_path): DropPath()
      (norm2): LayerNorm((96,), eps=1e-05, elementwise_affine=True)
      (mlp): Mlp(
        (fc1): Linear(in_features=96, out_features=384, bias=True)
        (act): GELU()
        (fc2): Linear(in_features=384, out_features=96, bias=True)
        (drop): Dropout(p=0.0, inplace=False)
      )
    )
  )
  (downsample): PatchMerging(
    (reduction): Linear(in_features=384, out_features=192, bias=False)
    (norm): LayerNorm((384,), eps=1e-05, elementwise_affine=True)
  )
)
--------------------------------------------------
1 BasicLayer(
  (blocks): ModuleList(
    (0): SwinTransformerBlock(
      (norm1): LayerNorm((192,), eps=1e-05, elementwise_affine=True)
      (attn): WindowAttention(
        (qkv): Linear(in_features=192, out_features=576, bias=True)
        (attn_drop): Dropout(p=0.0, inplace=False)
        (proj): Linear(in_features=192, out_features=192, bias=True)
        (proj_drop): Dropout(p=0.0, inplace=False)
        (softmax): Softmax(dim=-1)
      )
      (drop_path): DropPath()
      (norm2): LayerNorm((192,), eps=1e-05, elementwise_affine=True)
      (mlp): Mlp(
        (fc1): Linear(in_features=192, out_features=768, bias=True)
        (act): GELU()
        (fc2): Linear(in_features=768, out_features=192, bias=True)
        (drop): Dropout(p=0.0, inplace=False)
      )
    )
    (1): SwinTransformerBlock(
      (norm1): LayerNorm((192,), eps=1e-05, elementwise_affine=True)
      (attn): WindowAttention(
        (qkv): Linear(in_features=192, out_features=576, bias=True)
        (attn_drop): Dropout(p=0.0, inplace=False)
        (proj): Linear(in_features=192, out_features=192, bias=True)
        (proj_drop): Dropout(p=0.0, inplace=False)
        (softmax): Softmax(dim=-1)
      )
      (drop_path): DropPath()
      (norm2): LayerNorm((192,), eps=1e-05, elementwise_affine=True)
      (mlp): Mlp(
        (fc1): Linear(in_features=192, out_features=768, bias=True)
        (act): GELU()
        (fc2): Linear(in_features=768, out_features=192, bias=True)
        (drop): Dropout(p=0.0, inplace=False)
      )
    )
  )
  (downsample): PatchMerging(
    (reduction): Linear(in_features=768, out_features=384, bias=False)
    (norm): LayerNorm((768,), eps=1e-05, elementwise_affine=True)
  )
)
--------------------------------------------------
2 BasicLayer(
  (blocks): ModuleList(
    (0): SwinTransformerBlock(
      (norm1): LayerNorm((384,), eps=1e-05, elementwise_affine=True)
      (attn): WindowAttention(
        (qkv): Linear(in_features=384, out_features=1152, bias=True)
        (attn_drop): Dropout(p=0.0, inplace=False)
        (proj): Linear(in_features=384, out_features=384, bias=True)
        (proj_drop): Dropout(p=0.0, inplace=False)
        (softmax): Softmax(dim=-1)
      )
      (drop_path): DropPath()
      (norm2): LayerNorm((384,), eps=1e-05, elementwise_affine=True)
      (mlp): Mlp(
        (fc1): Linear(in_features=384, out_features=1536, bias=True)
        (act): GELU()
        (fc2): Linear(in_features=1536, out_features=384, bias=True)
        (drop): Dropout(p=0.0, inplace=False)
      )
    )
    (1): SwinTransformerBlock(
      (norm1): LayerNorm((384,), eps=1e-05, elementwise_affine=True)
      (attn): WindowAttention(
        (qkv): Linear(in_features=384, out_features=1152, bias=True)
        (attn_drop): Dropout(p=0.0, inplace=False)
        (proj): Linear(in_features=384, out_features=384, bias=True)
        (proj_drop): Dropout(p=0.0, inplace=False)
        (softmax): Softmax(dim=-1)
      )
      (drop_path): DropPath()
      (norm2): LayerNorm((384,), eps=1e-05, elementwise_affine=True)
      (mlp): Mlp(
        (fc1): Linear(in_features=384, out_features=1536, bias=True)
        (act): GELU()
        (fc2): Linear(in_features=1536, out_features=384, bias=True)
        (drop): Dropout(p=0.0, inplace=False)
      )
    )
    (2): SwinTransformerBlock(
      (norm1): LayerNorm((384,), eps=1e-05, elementwise_affine=True)
      (attn): WindowAttention(
        (qkv): Linear(in_features=384, out_features=1152, bias=True)
        (attn_drop): Dropout(p=0.0, inplace=False)
        (proj): Linear(in_features=384, out_features=384, bias=True)
        (proj_drop): Dropout(p=0.0, inplace=False)
        (softmax): Softmax(dim=-1)
      )
      (drop_path): DropPath()
      (norm2): LayerNorm((384,), eps=1e-05, elementwise_affine=True)
      (mlp): Mlp(
        (fc1): Linear(in_features=384, out_features=1536, bias=True)
        (act): GELU()
        (fc2): Linear(in_features=1536, out_features=384, bias=True)
        (drop): Dropout(p=0.0, inplace=False)
      )
    )
    (3): SwinTransformerBlock(
      (norm1): LayerNorm((384,), eps=1e-05, elementwise_affine=True)
      (attn): WindowAttention(
        (qkv): Linear(in_features=384, out_features=1152, bias=True)
        (attn_drop): Dropout(p=0.0, inplace=False)
        (proj): Linear(in_features=384, out_features=384, bias=True)
        (proj_drop): Dropout(p=0.0, inplace=False)
        (softmax): Softmax(dim=-1)
      )
      (drop_path): DropPath()
      (norm2): LayerNorm((384,), eps=1e-05, elementwise_affine=True)
      (mlp): Mlp(
        (fc1): Linear(in_features=384, out_features=1536, bias=True)
        (act): GELU()
        (fc2): Linear(in_features=1536, out_features=384, bias=True)
        (drop): Dropout(p=0.0, inplace=False)
      )
    )
    (4): SwinTransformerBlock(
      (norm1): LayerNorm((384,), eps=1e-05, elementwise_affine=True)
      (attn): WindowAttention(
        (qkv): Linear(in_features=384, out_features=1152, bias=True)
        (attn_drop): Dropout(p=0.0, inplace=False)
        (proj): Linear(in_features=384, out_features=384, bias=True)
        (proj_drop): Dropout(p=0.0, inplace=False)
        (softmax): Softmax(dim=-1)
      )
      (drop_path): DropPath()
      (norm2): LayerNorm((384,), eps=1e-05, elementwise_affine=True)
      (mlp): Mlp(
        (fc1): Linear(in_features=384, out_features=1536, bias=True)
        (act): GELU()
        (fc2): Linear(in_features=1536, out_features=384, bias=True)
        (drop): Dropout(p=0.0, inplace=False)
      )
    )
    (5): SwinTransformerBlock(
      (norm1): LayerNorm((384,), eps=1e-05, elementwise_affine=True)
      (attn): WindowAttention(
        (qkv): Linear(in_features=384, out_features=1152, bias=True)
        (attn_drop): Dropout(p=0.0, inplace=False)
        (proj): Linear(in_features=384, out_features=384, bias=True)
        (proj_drop): Dropout(p=0.0, inplace=False)
        (softmax): Softmax(dim=-1)
      )
      (drop_path): DropPath()
      (norm2): LayerNorm((384,), eps=1e-05, elementwise_affine=True)
      (mlp): Mlp(
        (fc1): Linear(in_features=384, out_features=1536, bias=True)
        (act): GELU()
        (fc2): Linear(in_features=1536, out_features=384, bias=True)
        (drop): Dropout(p=0.0, inplace=False)
      )
    )
  )
  (downsample): PatchMerging(
    (reduction): Linear(in_features=1536, out_features=768, bias=False)
    (norm): LayerNorm((1536,), eps=1e-05, elementwise_affine=True)
  )
)
--------------------------------------------------
3 BasicLayer(
  (blocks): ModuleList(
    (0): SwinTransformerBlock(
      (norm1): LayerNorm((768,), eps=1e-05, elementwise_affine=True)
      (attn): WindowAttention(
        (qkv): Linear(in_features=768, out_features=2304, bias=True)
        (attn_drop): Dropout(p=0.0, inplace=False)
        (proj): Linear(in_features=768, out_features=768, bias=True)
        (proj_drop): Dropout(p=0.0, inplace=False)
        (softmax): Softmax(dim=-1)
      )
      (drop_path): DropPath()
      (norm2): LayerNorm((768,), eps=1e-05, elementwise_affine=True)
      (mlp): Mlp(
        (fc1): Linear(in_features=768, out_features=3072, bias=True)
        (act): GELU()
        (fc2): Linear(in_features=3072, out_features=768, bias=True)
        (drop): Dropout(p=0.0, inplace=False)
      )
    )
    (1): SwinTransformerBlock(
      (norm1): LayerNorm((768,), eps=1e-05, elementwise_affine=True)
      (attn): WindowAttention(
        (qkv): Linear(in_features=768, out_features=2304, bias=True)
        (attn_drop): Dropout(p=0.0, inplace=False)
        (proj): Linear(in_features=768, out_features=768, bias=True)
        (proj_drop): Dropout(p=0.0, inplace=False)
        (softmax): Softmax(dim=-1)
      )
      (drop_path): DropPath()
      (norm2): LayerNorm((768,), eps=1e-05, elementwise_affine=True)
      (mlp): Mlp(
        (fc1): Linear(in_features=768, out_features=3072, bias=True)
        (act): GELU()
        (fc2): Linear(in_features=3072, out_features=768, bias=True)
        (drop): Dropout(p=0.0, inplace=False)
      )
    )
  )
)
torch.Size([4, 256, 96, 96])
torch.Size([4, 512, 48, 48])
torch.Size([4, 1024, 24, 24])
torch.Size([4, 512, 24, 24])
torch.Size([4, 512, 48, 48])
coco_CSPDarknet-s_640x640| train: total_epoch[1/300] total_batch[14/9000] batch[14/30] |size: 4x3x768x768 |lr: 0.00000544 |Tot: 0:00:15 |ETA: 0:00:15 |loss 20.3712 |conf_loss 13.9703 |cls_loss 1.6408 |iou_loss 4.7601 |num_fg 0.9818 |Data 0.340s |Batch 0.791s
xxxxxxxxxxxx: torch.Size([4, 3, 768, 768])
xxxxx:projjjjjjjjjjjjj: torch.Size([4, 96, 192, 192])
flatten: torch.Size([4, 36864, 96])
pos_drop: torch.Size([4, 36864, 96])
--------------------------------------------------
0 BasicLayer(
  (blocks): ModuleList(
    (0): SwinTransformerBlock(
      (norm1): LayerNorm((96,), eps=1e-05, elementwise_affine=True)
      (attn): WindowAttention(
        (qkv): Linear(in_features=96, out_features=288, bias=True)
        (attn_drop): Dropout(p=0.0, inplace=False)
        (proj): Linear(in_features=96, out_features=96, bias=True)
        (proj_drop): Dropout(p=0.0, inplace=False)
        (softmax): Softmax(dim=-1)
      )
      (drop_path): Identity()
      (norm2): LayerNorm((96,), eps=1e-05, elementwise_affine=True)
      (mlp): Mlp(
        (fc1): Linear(in_features=96, out_features=384, bias=True)
        (act): GELU()
        (fc2): Linear(in_features=384, out_features=96, bias=True)
        (drop): Dropout(p=0.0, inplace=False)
      )
    )
    (1): SwinTransformerBlock(
      (norm1): LayerNorm((96,), eps=1e-05, elementwise_affine=True)
      (attn): WindowAttention(
        (qkv): Linear(in_features=96, out_features=288, bias=True)
        (attn_drop): Dropout(p=0.0, inplace=False)
        (proj): Linear(in_features=96, out_features=96, bias=True)
        (proj_drop): Dropout(p=0.0, inplace=False)
        (softmax): Softmax(dim=-1)
      )
      (drop_path): DropPath()
      (norm2): LayerNorm((96,), eps=1e-05, elementwise_affine=True)
      (mlp): Mlp(
        (fc1): Linear(in_features=96, out_features=384, bias=True)
        (act): GELU()
        (fc2): Linear(in_features=384, out_features=96, bias=True)
        (drop): Dropout(p=0.0, inplace=False)
      )
    )
  )
  (downsample): PatchMerging(
    (reduction): Linear(in_features=384, out_features=192, bias=False)
    (norm): LayerNorm((384,), eps=1e-05, elementwise_affine=True)
  )
)
--------------------------------------------------
1 BasicLayer(
  (blocks): ModuleList(
    (0): SwinTransformerBlock(
      (norm1): LayerNorm((192,), eps=1e-05, elementwise_affine=True)
      (attn): WindowAttention(
        (qkv): Linear(in_features=192, out_features=576, bias=True)
        (attn_drop): Dropout(p=0.0, inplace=False)
        (proj): Linear(in_features=192, out_features=192, bias=True)
        (proj_drop): Dropout(p=0.0, inplace=False)
        (softmax): Softmax(dim=-1)
      )
      (drop_path): DropPath()
      (norm2): LayerNorm((192,), eps=1e-05, elementwise_affine=True)
      (mlp): Mlp(
        (fc1): Linear(in_features=192, out_features=768, bias=True)
        (act): GELU()
        (fc2): Linear(in_features=768, out_features=192, bias=True)
        (drop): Dropout(p=0.0, inplace=False)
      )
    )
    (1): SwinTransformerBlock(
      (norm1): LayerNorm((192,), eps=1e-05, elementwise_affine=True)
      (attn): WindowAttention(
        (qkv): Linear(in_features=192, out_features=576, bias=True)
        (attn_drop): Dropout(p=0.0, inplace=False)
        (proj): Linear(in_features=192, out_features=192, bias=True)
        (proj_drop): Dropout(p=0.0, inplace=False)
        (softmax): Softmax(dim=-1)
      )
      (drop_path): DropPath()
      (norm2): LayerNorm((192,), eps=1e-05, elementwise_affine=True)
…
        (fc1): Linear(in_features=192, out_features=768, bias=True)
        (act): GELU()
        (fc2): Linear(in_features=768, out_features=192, bias=True)
        (drop): Dropout(p=0.0, inplace=False)
      )
    )
    (1): SwinTransformerBlock(
      (norm1): LayerNorm((192,), eps=1e-05, elementwise_affine=True)
      (attn): WindowAttention(
        (qkv): Linear(in_features=192, out_features=576, bias=True)
        (attn_drop): Dropout(p=0.0, inplace=False)
        (proj): Linear(in_features=192, out_features=192, bias=True)
        (proj_drop): Dropout(p=0.0, inplace=False)
        (softmax): Softmax(dim=-1)
      )
      (drop_path): DropPath()
      (norm2): LayerNorm((192,), eps=1e-05, elementwise_affine=True)
      (mlp): Mlp(
        (fc1): Linear(in_features=192, out_features=768, bias=True)
        (act): GELU()
        (fc2): Linear(in_features=768, out_features=192, bias=True)
        (drop): Dropout(p=0.0, inplace=False)
      )
    )
  )
  (downsample): PatchMerging(
    (reduction): Linear(in_features=768, out_features=384, bias=False)
    (norm): LayerNorm((768,), eps=1e-05, elementwise_affine=True)
  )
)
--------------------------------------------------
2 BasicLayer(
  (blocks): ModuleList(
    (0): SwinTransformerBlock(
      (norm1): LayerNorm((384,), eps=1e-05, elementwise_affine=True)
      (attn): WindowAttention(
        (qkv): Linear(in_features=384, out_features=1152, bias=True)
        (attn_drop): Dropout(p=0.0, inplace=False)
        (proj): Linear(in_features=384, out_features=384, bias=True)
        (proj_drop): Dropout(p=0.0, inplace=False)
        (softmax): Softmax(dim=-1)
      )
      (drop_path): DropPath()
      (norm2): LayerNorm((384,), eps=1e-05, elementwise_affine=True)
      (mlp): Mlp(
        (fc1): Linear(in_features=384, out_features=1536, bias=True)
        (act): GELU()
        (fc2): Linear(in_features=1536, out_features=384, bias=True)
        (drop): Dropout(p=0.0, inplace=False)
      )
    )
    (1): SwinTransformerBlock(
      (norm1): LayerNorm((384,), eps=1e-05, elementwise_affine=True)
      (attn): WindowAttention(
        (qkv): Linear(in_features=384, out_features=1152, bias=True)
        (attn_drop): Dropout(p=0.0, inplace=False)
        (proj): Linear(in_features=384, out_features=384, bias=True)
        (proj_drop): Dropout(p=0.0, inplace=False)
        (softmax): Softmax(dim=-1)
      )
      (drop_path): DropPath()
      (norm2): LayerNorm((384,), eps=1e-05, elementwise_affine=True)
      (mlp): Mlp(
        (fc1): Linear(in_features=384, out_features=1536, bias=True)
        (act): GELU()
        (fc2): Linear(in_features=1536, out_features=384, bias=True)
        (drop): Dropout(p=0.0, inplace=False)
      )
    )
    (2): SwinTransformerBlock(
      (norm1): LayerNorm((384,), eps=1e-05, elementwise_affine=True)
      (attn): WindowAttention(
        (qkv): Linear(in_features=384, out_features=1152, bias=True)
        (attn_drop): Dropout(p=0.0, inplace=False)
        (proj): Linear(in_features=384, out_features=384, bias=True)
        (proj_drop): Dropout(p=0.0, inplace=False)
        (softmax): Softmax(dim=-1)
      )
      (drop_path): DropPath()
      (norm2): LayerNorm((384,), eps=1e-05, elementwise_affine=True)
      (mlp): Mlp(
        (fc1): Linear(in_features=384, out_features=1536, bias=True)
        (act): GELU()
        (fc2): Linear(in_features=1536, out_features=384, bias=True)
        (drop): Dropout(p=0.0, inplace=False)
      )
    )
    (3): SwinTransformerBlock(
      (norm1): LayerNorm((384,), eps=1e-05, elementwise_affine=True)
      (attn): WindowAttention(
        (qkv): Linear(in_features=384, out_features=1152, bias=True)
        (attn_drop): Dropout(p=0.0, inplace=False)
        (proj): Linear(in_features=384, out_features=384, bias=True)
        (proj_drop): Dropout(p=0.0, inplace=False)
        (softmax): Softmax(dim=-1)
      )
      (drop_path): DropPath()
      (norm2): LayerNorm((384,), eps=1e-05, elementwise_affine=True)
      (mlp): Mlp(
        (fc1): Linear(in_features=384, out_features=1536, bias=True)
        (act): GELU()
        (fc2): Linear(in_features=1536, out_features=384, bias=True)
        (drop): Dropout(p=0.0, inplace=False)
      )
    )
    (4): SwinTransformerBlock(
      (norm1): LayerNorm((384,), eps=1e-05, elementwise_affine=True)
      (attn): WindowAttention(
        (qkv): Linear(in_features=384, out_features=1152, bias=True)
        (attn_drop): Dropout(p=0.0, inplace=False)
        (proj): Linear(in_features=384, out_features=384, bias=True)
        (proj_drop): Dropout(p=0.0, inplace=False)
        (softmax): Softmax(dim=-1)
      )
      (drop_path): DropPath()
      (norm2): LayerNorm((384,), eps=1e-05, elementwise_affine=True)
      (mlp): Mlp(
        (fc1): Linear(in_features=384, out_features=1536, bias=True)
        (act): GELU()
        (fc2): Linear(in_features=1536, out_features=384, bias=True)
        (drop): Dropout(p=0.0, inplace=False)
      )
    )
    (5): SwinTransformerBlock(
      (norm1): LayerNorm((384,), eps=1e-05, elementwise_affine=True)
      (attn): WindowAttention(
        (qkv): Linear(in_features=384, out_features=1152, bias=True)
        (attn_drop): Dropout(p=0.0, inplace=False)
        (proj): Linear(in_features=384, out_features=384, bias=True)
        (proj_drop): Dropout(p=0.0, inplace=False)
        (softmax): Softmax(dim=-1)
      )
      (drop_path): DropPath()
      (norm2): LayerNorm((384,), eps=1e-05, elementwise_affine=True)
      (mlp): Mlp(
        (fc1): Linear(in_features=384, out_features=1536, bias=True)
        (act): GELU()
        (fc2): Linear(in_features=1536, out_features=384, bias=True)
        (drop): Dropout(p=0.0, inplace=False)
      )
    )
  )
  (downsample): PatchMerging(
    (reduction): Linear(in_features=1536, out_features=768, bias=False)
    (norm): LayerNorm((1536,), eps=1e-05, elementwise_affine=True)
  )
)
--------------------------------------------------
3 BasicLayer(
  (blocks): ModuleList(
    (0): SwinTransformerBlock(
      (norm1): LayerNorm((768,), eps=1e-05, elementwise_affine=True)
      (attn): WindowAttention(
        (qkv): Linear(in_features=768, out_features=2304, bias=True)
        (attn_drop): Dropout(p=0.0, inplace=False)
        (proj): Linear(in_features=768, out_features=768, bias=True)
        (proj_drop): Dropout(p=0.0, inplace=False)
        (softmax): Softmax(dim=-1)
      )
      (drop_path): DropPath()
      (norm2): LayerNorm((768,), eps=1e-05, elementwise_affine=True)
      (mlp): Mlp(
        (fc1): Linear(in_features=768, out_features=3072, bias=True)
        (act): GELU()
        (fc2): Linear(in_features=3072, out_features=768, bias=True)
        (drop): Dropout(p=0.0, inplace=False)
      )
    )
    (1): SwinTransformerBlock(
      (norm1): LayerNorm((768,), eps=1e-05, elementwise_affine=True)
      (attn): WindowAttention(
        (qkv): Linear(in_features=768, out_features=2304, bias=True)
        (attn_drop): Dropout(p=0.0, inplace=False)
        (proj): Linear(in_features=768, out_features=768, bias=True)
        (proj_drop): Dropout(p=0.0, inplace=False)
        (softmax): Softmax(dim=-1)
      )
      (drop_path): DropPath()
      (norm2): LayerNorm((768,), eps=1e-05, elementwise_affine=True)
      (mlp): Mlp(
        (fc1): Linear(in_features=768, out_features=3072, bias=True)
        (act): GELU()
        (fc2): Linear(in_features=3072, out_features=768, bias=True)
        (drop): Dropout(p=0.0, inplace=False)
      )
    )
  )
)
torch.Size([4, 256, 72, 72])
torch.Size([4, 512, 36, 36])
torch.Size([4, 1024, 18, 18])
torch.Size([4, 512, 18, 18])
torch.Size([4, 512, 36, 36])
coco_CSPDarknet-s_640x640| train: total_epoch[1/300] total_batch[28/9000] batch[28/30] |size: 4x3x576x576 |lr: 0.00002178 |Tot: 0:00:24 |ETA: 0:00:02 |loss 18.5051 |conf_loss 12.0736 |cls_loss 1.7079 |iou_loss 4.7236 |num_fg 0.9900 |Data 0.120s |Batch 0.564s
xxxxxxxxxxxx: torch.Size([4, 3, 576, 576])
xxxxx:projjjjjjjjjjjjj: torch.Size([4, 96, 144, 144])
flatten: torch.Size([4, 20736, 96])
pos_drop: torch.Size([4, 20736, 96])
--------------------------------------------------
0 BasicLayer(
  (blocks): ModuleList(
    (0): SwinTransformerBlock(
      (norm1): LayerNorm((96,), eps=1e-05, elementwise_affine=True)
      (attn): WindowAttention(
        (qkv): Linear(in_features=96, out_features=288, bias=True)
        (attn_drop): Dropout(p=0.0, inplace=False)
        (proj): Linear(in_features=96, out_features=96, bias=True)
        (proj_drop): Dropout(p=0.0, inplace=False)
        (softmax): Softmax(dim=-1)
      )
      (drop_path): Identity()
      (norm2): LayerNorm((96,), eps=1e-05, elementwise_affine=True)
      (mlp): Mlp(
        (fc1): Linear(in_features=96, out_features=384, bias=True)
        (act): GELU()
        (fc2): Linear(in_features=384, out_features=96, bias=True)
        (drop): Dropout(p=0.0, inplace=False)
      )
    )
    (1): SwinTransformerBlock(
      (norm1): LayerNorm((96,), eps=1e-05, elementwise_affine=True)
      (attn): WindowAttention(
        (qkv): Linear(in_features=96, out_features=288, bias=True)
        (attn_drop): Dropout(p=0.0, inplace=False)
        (proj): Linear(in_features=96, out_features=96, bias=True)
        (proj_drop): Dropout(p=0.0, inplace=False)
        (softmax): Softmax(dim=-1)
      )
      (drop_path): DropPath()
      (norm2): LayerNorm((96,), eps=1e-05, elementwise_affine=True)
      (mlp): Mlp(
        (fc1): Linear(in_features=96, out_features=384, bias=True)
        (act): GELU()
        (fc2): Linear(in_features=384, out_features=96, bias=True)
        (drop): Dropout(p=0.0, inplace=False)
      )
    )
  )
  (downsample): PatchMerging(
    (reduction): Linear(in_features=384, out_features=192, bias=False)
    (norm): LayerNorm((384,), eps=1e-05, elementwise_affine=True)
  )
)
--------------------------------------------------
1 BasicLayer(
  (blocks): ModuleList(
    (0): SwinTransformerBlock(
      (norm1): LayerNorm((192,), eps=1e-05, elementwise_affine=True)
      (attn): WindowAttention(
        (qkv): Linear(in_features=192, out_features=576, bias=True)
        (attn_drop): Dropout(p=0.0, inplace=False)
        (proj): Linear(in_features=192, out_features=192, bias=True)
        (proj_drop): Dropout(p=0.0, inplace=False)
        (softmax): Softmax(dim=-1)
      )
      (drop_path): DropPath()
      (norm2): LayerNorm((192,), eps=1e-05, elementwise_affine=True)
      (mlp): Mlp(
        (fc1): Linear(in_features=192, out_features=768, bias=True)
        (act): GELU()
        (fc2): Linear(in_features=768, out_features=192, bias=True)
        (drop): Dropout(p=0.0, inplace=False)
      )
    )
    (1): SwinTransformerBlock(
      (norm1): LayerNorm((192,), eps=1e-05, elementwise_affine=True)
      (attn): WindowAttention(
        (qkv): Linear(in_features=192, out_features=576, bias=True)
        (attn_drop): Dropout(p=0.0, inplace=False)
        (proj): Linear(in_features=192, out_features=192, bias=True)
        (proj_drop): Dropout(p=0.0, inplace=False)
        (softmax): Softmax(dim=-1)
      )
      (drop_path): DropPath()
      (norm2): LayerNorm((192,), eps=1e-05, elementwise_affine=True)
      (mlp): Mlp(
        (fc1): Linear(in_features=192, out_features=768, bias=True)
        (act): GELU()
        (fc2): Linear(in_features=768, out_features=192, bias=True)
        (drop): Dropout(p=0.0, inplace=False)
      )
    )
  )
  (downsample): PatchMerging(
    (reduction): Linear(in_features=768, out_features=384, bias=False)
    (norm): LayerNorm((768,), eps=1e-05, elementwise_affine=True)
  )
)
--------------------------------------------------
2 BasicLayer(
  (blocks): ModuleList(
    (0): SwinTransformerBlock(
      (norm1): LayerNorm((384,), eps=1e-05, elementwise_affine=True)
      (attn): WindowAttention(
        (qkv): Linear(in_features=384, out_features=1152, bias=True)
        (attn_drop): Dropout(p=0.0, inplace=False)
        (proj): Linear(in_features=384, out_features=384, bias=True)
        (proj_drop): Dropout(p=0.0, inplace=False)
        (softmax): Softmax(dim=-1)
      )
      (drop_path): DropPath()
      (norm2): LayerNorm((384,), eps=1e-05, elementwise_affine=True)
      (mlp): Mlp(
        (fc1): Linear(in_features=384, out_features=1536, bias=True)
        (act): GELU()
        (fc2): Linear(in_features=1536, out_features=384, bias=True)
        (drop): Dropout(p=0.0, inplace=False)
      )
    )
    (1): SwinTransformerBlock(
      (norm1): LayerNorm((384,), eps=1e-05, elementwise_affine=True)
      (attn): WindowAttention(
        (qkv): Linear(in_features=384, out_features=1152, bias=True)
        (attn_drop): Dropout(p=0.0, inplace=False)
        (proj): Linear(in_features=384, out_features=384, bias=True)
        (proj_drop): Dropout(p=0.0, inplace=False)
        (softmax): Softmax(dim=-1)
      )
      (drop_path): DropPath()
      (norm2): LayerNorm((384,), eps=1e-05, elementwise_affine=True)
      (mlp): Mlp(
        (fc1): Linear(in_features=384, out_features=1536, bias=True)
        (act): GELU()
        (fc2): Linear(in_features=1536, out_features=384, bias=True)
        (drop): Dropout(p=0.0, inplace=False)
      )
    )
    (2): SwinTransformerBlock(
      (norm1): LayerNorm((384,), eps=1e-05, elementwise_affine=True)
      (attn): WindowAttention(
        (qkv): Linear(in_features=384, out_features=1152, bias=True)
        (attn_drop): Dropout(p=0.0, inplace=False)
        (proj): Linear(in_features=384, out_features=384, bias=True)
        (proj_drop): Dropout(p=0.0, inplace=False)
        (softmax): Softmax(dim=-1)
      )
      (drop_path): DropPath()
      (norm2): LayerNorm((384,), eps=1e-05, elementwise_affine=True)
      (mlp): Mlp(
        (fc1): Linear(in_features=384, out_features=1536, bias=True)
        (act): GELU()
        (fc2): Linear(in_features=1536, out_features=384, bias=True)
        (drop): Dropout(p=0.0, inplace=False)
      )
    )
    (3): SwinTransformerBlock(
      (norm1): LayerNorm((384,), eps=1e-05, elementwise_affine=True)
      (attn): WindowAttention(
        (qkv): Linear(in_features=384, out_features=1152, bias=True)
        (attn_drop): Dropout(p=0.0, inplace=False)
        (proj): Linear(in_features=384, out_features=384, bias=True)
        (proj_drop): Dropout(p=0.0, inplace=False)
        (softmax): Softmax(dim=-1)
      )
      (drop_path): DropPath()
      (norm2): LayerNorm((384,), eps=1e-05, elementwise_affine=True)
      (mlp): Mlp(
        (fc1): Linear(in_features=384, out_features=1536, bias=True)
        (act): GELU()
        (fc2): Linear(in_features=1536, out_features=384, bias=True)
        (drop): Dropout(p=0.0, inplace=False)
      )
    )
    (4): SwinTransformerBlock(
      (norm1): LayerNorm((384,), eps=1e-05, elementwise_affine=True)
      (attn): WindowAttention(
        (qkv): Linear(in_features=384, out_features=1152, bias=True)
        (attn_drop): Dropout(p=0.0, inplace=False)
        (proj): Linear(in_features=384, out_features=384, bias=True)
        (proj_drop): Dropout(p=0.0, inplace=False)
        (softmax): Softmax(dim=-1)
      )
      (drop_path): DropPath()
      (norm2): LayerNorm((384,), eps=1e-05, elementwise_affine=True)
      (mlp): Mlp(
        (fc1): Linear(in_features=384, out_features=1536, bias=True)
        (act): GELU()
        (fc2): Linear(in_features=1536, out_features=384, bias=True)
        (drop): Dropout(p=0.0, inplace=False)
      )
    )
    (5): SwinTransformerBlock(
      (norm1): LayerNorm((384,), eps=1e-05, elementwise_affine=True)
      (attn): WindowAttention(
        (qkv): Linear(in_features=384, out_features=1152, bias=True)
        (attn_drop): Dropout(p=0.0, inplace=False)
        (proj): Linear(in_features=384, out_features=384, bias=True)
        (proj_drop): Dropout(p=0.0, inplace=False)
        (softmax): Softmax(dim=-1)
      )
      (drop_path): DropPath()
      (norm2): LayerNorm((384,), eps=1e-05, elementwise_affine=True)
      (mlp): Mlp(
        (fc1): Linear(in_features=384, out_features=1536, bias=True)
        (act): GELU()
        (fc2): Linear(in_features=1536, out_features=384, bias=True)
        (drop): Dropout(p=0.0, inplace=False)
      )
    )
  )
  (downsample): PatchMerging(
    (reduction): Linear(in_features=1536, out_features=768, bias=False)
    (norm): LayerNorm((1536,), eps=1e-05, elementwise_affine=True)
  )
)
--------------------------------------------------
3 BasicLayer(
  (blocks): ModuleList(
    (0): SwinTransformerBlock(
      (norm1): LayerNorm((768,), eps=1e-05, elementwise_affine=True)
      (attn): WindowAttention(
        (qkv): Linear(in_features=768, out_features=2304, bias=True)
        (attn_drop): Dropout(p=0.0, inplace=False)
        (proj): Linear(in_features=768, out_features=768, bias=True)
        (proj_drop): Dropout(p=0.0, inplace=False)
        (softmax): Softmax(dim=-1)
      )
      (drop_path): DropPath()
      (norm2): LayerNorm((768,), eps=1e-05, elementwise_affine=True)
      (mlp): Mlp(
        (fc1): Linear(in_features=768, out_features=3072, bias=True)
        (act): GELU()
        (fc2): Linear(in_features=3072, out_features=768, bias=True)
        (drop): Dropout(p=0.0, inplace=False)
      )
    )
    (1): SwinTransformerBlock(
      (norm1): LayerNorm((768,), eps=1e-05, elementwise_affine=True)
      (attn): WindowAttention(
        (qkv): Linear(in_features=768, out_features=2304, bias=True)
        (attn_drop): Dropout(p=0.0, inplace=False)
        (proj): Linear(in_features=768, out_features=768, bias=True)
        (proj_drop): Dropout(p=0.0, inplace=False)
        (softmax): Softmax(dim=-1)
      )
      (drop_path): DropPath()
      (norm2): LayerNorm((768,), eps=1e-05, elementwise_affine=True)
      (mlp): Mlp(
        (fc1): Linear(in_features=768, out_features=3072, bias=True)
        (act): GELU()
        (fc2): Linear(in_features=3072, out_features=768, bias=True)
        (drop): Dropout(p=0.0, inplace=False)
      )
    )
  )
)
torch.Size([4, 256, 72, 72])
torch.Size([4, 512, 36, 36])
torch.Size([4, 1024, 18, 18])
torch.Size([4, 512, 18, 18])
torch.Size([4, 512, 36, 36])
coco_CSPDarknet-s_640x640| train: total_epoch[1/300] total_batch[29/9000] batch[29/30] |size: 4x3x576x576 |lr: 0.00002336 |Tot: 0:00:24 |ETA: 0:00:02 |loss 18.3421 |conf_loss 11.9073 |cls_loss 1.7138 |iou_loss 4.7209 |num_fg 0.9904 |Data 0.107s |Batch 0.543s
xxxxxxxxxxxx: torch.Size([4, 3, 576, 576])
xxxxx:projjjjjjjjjjjjj: torch.Size([4, 96, 144, 144])
flatten: torch.Size([4, 20736, 96])
pos_drop: torch.Size([4, 20736, 96])
--------------------------------------------------
0 BasicLayer(
  (blocks): ModuleList(
    (0): SwinTransformerBlock(
      (norm1): LayerNorm((96,), eps=1e-05, elementwise_affine=True)
      (attn): WindowAttention(
        (qkv): Linear(in_features=96, out_features=288, bias=True)
        (attn_drop): Dropout(p=0.0, inplace=False)
        (proj): Linear(in_features=96, out_features=96, bias=True)
        (proj_drop): Dropout(p=0.0, inplace=False)
        (softmax): Softmax(dim=-1)
      )
      (drop_path): Identity()
      (norm2): LayerNorm((96,), eps=1e-05, elementwise_affine=True)
      (mlp): Mlp(
        (fc1): Linear(in_features=96, out_features=384, bias=True)
        (act): GELU()
        (fc2): Linear(in_features=384, out_features=96, bias=True)
        (drop): Dropout(p=0.0, inplace=False)
      )
    )
    (1): SwinTransformerBlock(
      (norm1): LayerNorm((96,), eps=1e-05, elementwise_affine=True)
      (attn): WindowAttention(
        (qkv): Linear(in_features=96, out_features=288, bias=True)
        (attn_drop): Dropout(p=0.0, inplace=False)
        (proj): Linear(in_features=96, out_features=96, bias=True)
        (proj_drop): Dropout(p=0.0, inplace=False)
        (softmax): Softmax(dim=-1)
      )
      (drop_path): DropPath()
      (norm2): LayerNorm((96,), eps=1e-05, elementwise_affine=True)
      (mlp): Mlp(
        (fc1): Linear(in_features=96, out_features=384, bias=True)
        (act): GELU()
        (fc2): Linear(in_features=384, out_features=96, bias=True)
        (drop): Dropout(p=0.0, inplace=False)
      )
    )
  )
  (downsample): PatchMerging(
    (reduction): Linear(in_features=384, out_features=192, bias=False)
    (norm): LayerNorm((384,), eps=1e-05, elementwise_affine=True)
  )
)
--------------------------------------------------
1 BasicLayer(
  (blocks): ModuleList(
    (0): SwinTransformerBlock(
      (norm1): LayerNorm((192,), eps=1e-05, elementwise_affine=True)
      (attn): WindowAttention(
        (qkv): Linear(in_features=192, out_features=576, bias=True)
        (attn_drop): Dropout(p=0.0, inplace=False)
        (proj): Linear(in_features=192, out_features=192, bias=True)
        (proj_drop): Dropout(p=0.0, inplace=False)
        (softmax): Softmax(dim=-1)
      )
      (drop_path): DropPath()
      (norm2): LayerNorm((192,), eps=1e-05, elementwise_affine=True)
      (mlp): Mlp(
        (fc1): Linear(in_features=192, out_features=768, bias=True)
        (act): GELU()
        (fc2): Linear(in_features=768, out_features=192, bias=True)
        (drop): Dropout(p=0.0, inplace=False)
      )
    )
    (1): SwinTransformerBlock(
      (norm1): LayerNorm((192,), eps=1e-05, elementwise_affine=True)
      (attn): WindowAttention(
        (qkv): Linear(in_features=192, out_features=576, bias=True)
        (attn_drop): Dropout(p=0.0, inplace=False)
        (proj): Linear(in_features=192, out_features=192, bias=True)
        (proj_drop): Dropout(p=0.0, inplace=False)
        (softmax): Softmax(dim=-1)
      )
      (drop_path): DropPath()
      (norm2): LayerNorm((192,), eps=1e-05, elementwise_affine=True)
      (mlp): Mlp(
        (fc1): Linear(in_features=192, out_features=768, bias=True)
        (act): GELU()
        (fc2): Linear(in_features=768, out_features=192, bias=True)
        (drop): Dropout(p=0.0, inplace=False)
      )
    )
  )
  (downsample): PatchMerging(
    (reduction): Linear(in_features=768, out_features=384, bias=False)
    (norm): LayerNorm((768,), eps=1e-05, elementwise_affine=True)
  )
)
--------------------------------------------------
2 BasicLayer(
  (blocks): ModuleList(
    (0): SwinTransformerBlock(
      (norm1): LayerNorm((384,), eps=1e-05, elementwise_affine=True)
      (attn): WindowAttention(
        (qkv): Linear(in_features=384, out_features=1152, bias=True)
        (attn_drop): Dropout(p=0.0, inplace=False)
        (proj): Linear(in_features=384, out_features=384, bias=True)
        (proj_drop): Dropout(p=0.0, inplace=False)
        (softmax): Softmax(dim=-1)
      )
      (drop_path): DropPath()
      (norm2): LayerNorm((384,), eps=1e-05, elementwise_affine=True)
      (mlp): Mlp(
        (fc1): Linear(in_features=384, out_features=1536, bias=True)
        (act): GELU()
        (fc2): Linear(in_features=1536, out_features=384, bias=True)
        (drop): Dropout(p=0.0, inplace=False)
      )
    )
    (1): SwinTransformerBlock(
      (norm1): LayerNorm((384,), eps=1e-05, elementwise_affine=True)
      (attn): WindowAttention(
        (qkv): Linear(in_features=384, out_features=1152, bias=True)
        (attn_drop): Dropout(p=0.0, inplace=False)
        (proj): Linear(in_features=384, out_features=384, bias=True)
        (proj_drop): Dropout(p=0.0, inplace=False)
        (softmax): Softmax(dim=-1)
      )
      (drop_path): DropPath()
      (norm2): LayerNorm((384,), eps=1e-05, elementwise_affine=True)
      (mlp): Mlp(
        (fc1): Linear(in_features=384, out_features=1536, bias=True)
        (act): GELU()
        (fc2): Linear(in_features=1536, out_features=384, bias=True)
        (drop): Dropout(p=0.0, inplace=False)
      )
    )
    (2): SwinTransformerBlock(
      (norm1): LayerNorm((384,), eps=1e-05, elementwise_affine=True)
      (attn): WindowAttention(
        (qkv): Linear(in_features=384, out_features=1152, bias=True)
        (attn_drop): Dropout(p=0.0, inplace=False)
        (proj): Linear(in_features=384, out_features=384, bias=True)
        (proj_drop): Dropout(p=0.0, inplace=False)
        (softmax): Softmax(dim=-1)
      )
      (drop_path): DropPath()
      (norm2): LayerNorm((384,), eps=1e-05, elementwise_affine=True)
      (mlp): Mlp(
        (fc1): Linear(in_features=384, out_features=1536, bias=True)
        (act): GELU()
        (fc2): Linear(in_features=1536, out_features=384, bias=True)
        (drop): Dropout(p=0.0, inplace=False)
      )
    )
    (3): SwinTransformerBlock(
      (norm1): LayerNorm((384,), eps=1e-05, elementwise_affine=True)
      (attn): WindowAttention(
        (qkv): Linear(in_features=384, out_features=1152, bias=True)
        (attn_drop): Dropout(p=0.0, inplace=False)
        (proj): Linear(in_features=384, out_features=384, bias=True)
        (proj_drop): Dropout(p=0.0, inplace=False)
        (softmax): Softmax(dim=-1)
      )
      (drop_path): DropPath()
      (norm2): LayerNorm((384,), eps=1e-05, elementwise_affine=True)
      (mlp): Mlp(
        (fc1): Linear(in_features=384, out_features=1536, bias=True)
        (act): GELU()
        (fc2): Linear(in_features=1536, out_features=384, bias=True)
        (drop): Dropout(p=0.0, inplace=False)
      )
    )
    (4): SwinTransformerBlock(
      (norm1): LayerNorm((384,), eps=1e-05, elementwise_affine=True)
      (attn): WindowAttention(
        (qkv): Linear(in_features=384, out_features=1152, bias=True)
        (attn_drop): Dropout(p=0.0, inplace=False)
        (proj): Linear(in_features=384, out_features=384, bias=True)
        (proj_drop): Dropout(p=0.0, inplace=False)
        (softmax): Softmax(dim=-1)
      )
      (drop_path): DropPath()
      (norm2): LayerNorm((384,), eps=1e-05, elementwise_affine=True)
      (mlp): Mlp(
        (fc1): Linear(in_features=384, out_features=1536, bias=True)
        (act): GELU()
        (fc2): Linear(in_features=1536, out_features=384, bias=True)
        (drop): Dropout(p=0.0, inplace=False)
      )
    )
    (5): SwinTransformerBlock(
      (norm1): LayerNorm((384,), eps=1e-05, elementwise_affine=True)
      (attn): WindowAttention(
        (qkv): Linear(in_features=384, out_features=1152, bias=True)
        (attn_drop): Dropout(p=0.0, inplace=False)
        (proj): Linear(in_features=384, out_features=384, bias=True)
        (proj_drop): Dropout(p=0.0, inplace=False)
        (softmax): Softmax(dim=-1)
      )
      (drop_path): DropPath()
      (norm2): LayerNorm((384,), eps=1e-05, elementwise_affine=True)
      (mlp): Mlp(
        (fc1): Linear(in_features=384, out_features=1536, bias=True)
        (act): GELU()
        (fc2): Linear(in_features=1536, out_features=384, bias=True)
        (drop): Dropout(p=0.0, inplace=False)
      )
    )
  )
  (downsample): PatchMerging(
    (reduction): Linear(in_features=1536, out_features=768, bias=False)
    (norm): LayerNorm((1536,), eps=1e-05, elementwise_affine=True)
  )
)
--------------------------------------------------
3 BasicLayer(
  (blocks): ModuleList(
    (0): SwinTransformerBlock(
      (norm1): LayerNorm((768,), eps=1e-05, elementwise_affine=True)
      (attn): WindowAttention(
        (qkv): Linear(in_features=768, out_features=2304, bias=True)
        (attn_drop): Dropout(p=0.0, inplace=False)
        (proj): Linear(in_features=768, out_features=768, bias=True)
        (proj_drop): Dropout(p=0.0, inplace=False)
        (softmax): Softmax(dim=-1)
      )
      (drop_path): DropPath()
      (norm2): LayerNorm((768,), eps=1e-05, elementwise_affine=True)
      (mlp): Mlp(
        (fc1): Linear(in_features=768, out_features=3072, bias=True)
        (act): GELU()
        (fc2): Linear(in_features=3072, out_features=768, bias=True)
        (drop): Dropout(p=0.0, inplace=False)
      )
    )
    (1): SwinTransformerBlock(
      (norm1): LayerNorm((768,), eps=1e-05, elementwise_affine=True)
      (attn): WindowAttention(
        (qkv): Linear(in_features=768, out_features=2304, bias=True)
        (attn_drop): Dropout(p=0.0, inplace=False)
        (proj): Linear(in_features=768, out_features=768, bias=True)
        (proj_drop): Dropout(p=0.0, inplace=False)
        (softmax): Softmax(dim=-1)
      )
      (drop_path): DropPath()
      (norm2): LayerNorm((768,), eps=1e-05, elementwise_affine=True)
      (mlp): Mlp(
        (fc1): Linear(in_features=768, out_features=3072, bias=True)
        (act): GELU()
        (fc2): Linear(in_features=3072, out_features=768, bias=True)
        (drop): Dropout(p=0.0, inplace=False)
      )
    )
  )
)
torch.Size([4, 256, 72, 72])
torch.Size([4, 512, 36, 36])
torch.Size([4, 1024, 18, 18])
torch.Size([4, 512, 18, 18])
torch.Size([4, 512, 36, 36])
coco_CSPDarknet-s_640x640| train: total_epoch[1/300] total_batch[30/9000] batch[30/30] |size: 4x3x576x576 |lr: 0.00002500 |Tot: 0:00:24 |ETA: 0:00:01 |loss 18.2385 |conf_loss 11.8045 |cls_loss 1.7126 |iou_loss 4.7214 |num_fg 0.9907 |Data 0.092s |Batch 0.369s
…
/user/home/bq18557/yolox-pytorch/data/dataset/coco_dataset/val2017/000000000002.jpg
/user/home/bq18557/yolox-pytorch/data/dataset/coco_dataset/val2017/000000000003.jpg
/user/home/bq18557/yolox-pytorch/data/dataset/coco_dataset/val2017/000000000004.jpg
/user/home/bq18557/yolox-pytorch/data/dataset/coco_dataset/val2017/000000000005.jpg
xxxxxxxxxxxx: torch.Size([4, 3, 640, 640])
xxxxx:projjjjjjjjjjjjj: torch.Size([4, 96, 160, 160])
flatten: torch.Size([4, 25600, 96])
pos_drop: torch.Size([4, 25600, 96])
--------------------------------------------------
0 BasicLayer(
  (blocks): ModuleList(
    (0): SwinTransformerBlock(
      (norm1): LayerNorm((96,), eps=1e-05, elementwise_affine=True)
      (attn): WindowAttention(
        (qkv): Linear(in_features=96, out_features=288, bias=True)
        (attn_drop): Dropout(p=0.0, inplace=False)
        (proj): Linear(in_features=96, out_features=96, bias=True)
        (proj_drop): Dropout(p=0.0, inplace=False)
        (softmax): Softmax(dim=-1)
      )
      (drop_path): Identity()
      (norm2): LayerNorm((96,), eps=1e-05, elementwise_affine=True)
      (mlp): Mlp(
        (fc1): Linear(in_features=96, out_features=384, bias=True)
        (act): GELU()
        (fc2): Linear(in_features=384, out_features=96, bias=True)
        (drop): Dropout(p=0.0, inplace=False)
      )
    )
    (1): SwinTransformerBlock(
      (norm1): LayerNorm((96,), eps=1e-05, elementwise_affine=True)
      (attn): WindowAttention(
        (qkv): Linear(in_features=96, out_features=288, bias=True)
        (attn_drop): Dropout(p=0.0, inplace=False)
        (proj): Linear(in_features=96, out_features=96, bias=True)
        (proj_drop): Dropout(p=0.0, inplace=False)
        (softmax): Softmax(dim=-1)
      )
      (drop_path): DropPath()
      (norm2): LayerNorm((96,), eps=1e-05, elementwise_affine=True)
      (mlp): Mlp(
        (fc1): Linear(in_features=96, out_features=384, bias=True)
        (act): GELU()
        (fc2): Linear(in_features=384, out_features=96, bias=True)
        (drop): Dropout(p=0.0, inplace=False)
      )
    )
  )
  (downsample): PatchMerging(
    (reduction): Linear(in_features=384, out_features=192, bias=False)
    (norm): LayerNorm((384,), eps=1e-05, elementwise_affine=True)
  )
)
--------------------------------------------------
1 BasicLayer(
  (blocks): ModuleList(
    (0): SwinTransformerBlock(
      (norm1): LayerNorm((192,), eps=1e-05, elementwise_affine=True)
      (attn): WindowAttention(
        (qkv): Linear(in_features=192, out_features=576, bias=True)
        (attn_drop): Dropout(p=0.0, inplace=False)
        (proj): Linear(in_features=192, out_features=192, bias=True)
        (proj_drop): Dropout(p=0.0, inplace=False)
        (softmax): Softmax(dim=-1)
      )
      (drop_path): DropPath()
      (norm2): LayerNorm((192,), eps=1e-05, elementwise_affine=True)
      (mlp): Mlp(
        (fc1): Linear(in_features=192, out_features=768, bias=True)
        (act): GELU()
        (fc2): Linear(in_features=768, out_features=192, bias=True)
        (drop): Dropout(p=0.0, inplace=False)
      )
    )
    (1): SwinTransformerBlock(
      (norm1): LayerNorm((192,), eps=1e-05, elementwise_affine=True)
      (attn): WindowAttention(
        (qkv): Linear(in_features=192, out_features=576, bias=True)
        (attn_drop): Dropout(p=0.0, inplace=False)
        (proj): Linear(in_features=192, out_features=192, bias=True)
        (proj_drop): Dropout(p=0.0, inplace=False)
        (softmax): Softmax(dim=-1)
      )
      (drop_path): DropPath()
      (norm2): LayerNorm((192,), eps=1e-05, elementwise_affine=True)
      (mlp): Mlp(
        (fc1): Linear(in_features=192, out_features=768, bias=True)
        (act): GELU()
        (fc2): Linear(in_features=768, out_features=192, bias=True)
        (drop): Dropout(p=0.0, inplace=False)
      )
    )
  )
  (downsample): PatchMerging(
    (reduction): Linear(in_features=768, out_features=384, bias=False)
    (norm): LayerNorm((768,), eps=1e-05, elementwise_affine=True)
  )
)
--------------------------------------------------
2 BasicLayer(
  (blocks): ModuleList(
    (0): SwinTransformerBlock(
      (norm1): LayerNorm((384,), eps=1e-05, elementwise_affine=True)
      (attn): WindowAttention(
        (qkv): Linear(in_features=384, out_features=1152, bias=True)
        (attn_drop): Dropout(p=0.0, inplace=False)
        (proj): Linear(in_features=384, out_features=384, bias=True)
        (proj_drop): Dropout(p=0.0, inplace=False)
        (softmax): Softmax(dim=-1)
      )
      (drop_path): DropPath()
      (norm2): LayerNorm((384,), eps=1e-05, elementwise_affine=True)
      (mlp): Mlp(
        (fc1): Linear(in_features=384, out_features=1536, bias=True)
        (act): GELU()
        (fc2): Linear(in_features=1536, out_features=384, bias=True)
        (drop): Dropout(p=0.0, inplace=False)
      )
    )
    (1): SwinTransformerBlock(
      (norm1): LayerNorm((384,), eps=1e-05, elementwise_affine=True)
      (attn): WindowAttention(
        (qkv): Linear(in_features=384, out_features=1152, bias=True)
        (attn_drop): Dropout(p=0.0, inplace=False)
        (proj): Linear(in_features=384, out_features=384, bias=True)
        (proj_drop): Dropout(p=0.0, inplace=False)
        (softmax): Softmax(dim=-1)
      )
      (drop_path): DropPath()
      (norm2): LayerNorm((384,), eps=1e-05, elementwise_affine=True)
      (mlp): Mlp(
        (fc1): Linear(in_features=384, out_features=1536, bias=True)
        (act): GELU()
        (fc2): Linear(in_features=1536, out_features=384, bias=True)
        (drop): Dropout(p=0.0, inplace=False)
      )
    )
    (2): SwinTransformerBlock(
      (norm1): LayerNorm((384,), eps=1e-05, elementwise_affine=True)
      (attn): WindowAttention(
        (qkv): Linear(in_features=384, out_features=1152, bias=True)
        (attn_drop): Dropout(p=0.0, inplace=False)
        (proj): Linear(in_features=384, out_features=384, bias=True)
        (proj_drop): Dropout(p=0.0, inplace=False)
        (softmax): Softmax(dim=-1)
      )
      (drop_path): DropPath()
      (norm2): LayerNorm((384,), eps=1e-05, elementwise_affine=True)
      (mlp): Mlp(
        (fc1): Linear(in_features=384, out_features=1536, bias=True)
        (act): GELU()
        (fc2): Linear(in_features=1536, out_features=384, bias=True)
        (drop): Dropout(p=0.0, inplace=False)
      )
    )
    (3): SwinTransformerBlock(
      (norm1): LayerNorm((384,), eps=1e-05, elementwise_affine=True)
      (attn): WindowAttention(
        (qkv): Linear(in_features=384, out_features=1152, bias=True)
        (attn_drop): Dropout(p=0.0, inplace=False)
        (proj): Linear(in_features=384, out_features=384, bias=True)
        (proj_drop): Dropout(p=0.0, inplace=False)
        (softmax): Softmax(dim=-1)
      )
      (drop_path): DropPath()
      (norm2): LayerNorm((384,), eps=1e-05, elementwise_affine=True)
      (mlp): Mlp(
        (fc1): Linear(in_features=384, out_features=1536, bias=True)
        (act): GELU()
        (fc2): Linear(in_features=1536, out_features=384, bias=True)
        (drop): Dropout(p=0.0, inplace=False)
      )
    )
    (4): SwinTransformerBlock(
      (norm1): LayerNorm((384,), eps=1e-05, elementwise_affine=True)
      (attn): WindowAttention(
        (qkv): Linear(in_features=384, out_features=1152, bias=True)
        (attn_drop): Dropout(p=0.0, inplace=False)
        (proj): Linear(in_features=384, out_features=384, bias=True)
        (proj_drop): Dropout(p=0.0, inplace=False)
        (softmax): Softmax(dim=-1)
      )
      (drop_path): DropPath()
      (norm2): LayerNorm((384,), eps=1e-05, elementwise_affine=True)
      (mlp): Mlp(
        (fc1): Linear(in_features=384, out_features=1536, bias=True)
        (act): GELU()
        (fc2): Linear(in_features=1536, out_features=384, bias=True)
        (drop): Dropout(p=0.0, inplace=False)
      )
    )
    (5): SwinTransformerBlock(
      (norm1): LayerNorm((384,), eps=1e-05, elementwise_affine=True)
      (attn): WindowAttention(
        (qkv): Linear(in_features=384, out_features=1152, bias=True)
        (attn_drop): Dropout(p=0.0, inplace=False)
        (proj): Linear(in_features=384, out_features=384, bias=True)
        (proj_drop): Dropout(p=0.0, inplace=False)
        (softmax): Softmax(dim=-1)
      )
      (drop_path): DropPath()
      (norm2): LayerNorm((384,), eps=1e-05, elementwise_affine=True)
      (mlp): Mlp(
        (fc1): Linear(in_features=384, out_features=1536, bias=True)
        (act): GELU()
        (fc2): Linear(in_features=1536, out_features=384, bias=True)
        (drop): Dropout(p=0.0, inplace=False)
      )
    )
  )
  (downsample): PatchMerging(
    (reduction): Linear(in_features=1536, out_features=768, bias=False)
    (norm): LayerNorm((1536,), eps=1e-05, elementwise_affine=True)
  )
)
--------------------------------------------------
3 BasicLayer(
  (blocks): ModuleList(
    (0): SwinTransformerBlock(
      (norm1): LayerNorm((768,), eps=1e-05, elementwise_affine=True)
      (attn): WindowAttention(
        (qkv): Linear(in_features=768, out_features=2304, bias=True)
        (attn_drop): Dropout(p=0.0, inplace=False)
        (proj): Linear(in_features=768, out_features=768, bias=True)
        (proj_drop): Dropout(p=0.0, inplace=False)
        (softmax): Softmax(dim=-1)
      )
      (drop_path): DropPath()
      (norm2): LayerNorm((768,), eps=1e-05, elementwise_affine=True)
      (mlp): Mlp(
        (fc1): Linear(in_features=768, out_features=3072, bias=True)
        (act): GELU()
        (fc2): Linear(in_features=3072, out_features=768, bias=True)
        (drop): Dropout(p=0.0, inplace=False)
      )
    )
    (1): SwinTransformerBlock(
      (norm1): LayerNorm((768,), eps=1e-05, elementwise_affine=True)
      (attn): WindowAttention(
        (qkv): Linear(in_features=768, out_features=2304, bias=True)
        (attn_drop): Dropout(p=0.0, inplace=False)
        (proj): Linear(in_features=768, out_features=768, bias=True)
        (proj_drop): Dropout(p=0.0, inplace=False)
        (softmax): Softmax(dim=-1)
      )
      (drop_path): DropPath()
      (norm2): LayerNorm((768,), eps=1e-05, elementwise_affine=True)
      (mlp): Mlp(
        (fc1): Linear(in_features=768, out_features=3072, bias=True)
        (act): GELU()
        (fc2): Linear(in_features=3072, out_features=768, bias=True)
        (drop): Dropout(p=0.0, inplace=False)
      )
    )
  )
)
torch.Size([4, 256, 80, 80])
torch.Size([4, 512, 40, 40])
torch.Size([4, 1024, 20, 20])
torch.Size([4, 512, 20, 20])
torch.Size([4, 512, 40, 40])
coco_CSPDarknet-s_640x640| val: total_epoch[2/300] total_batch[1/2] batch[1/2] |size: 4x3x640x640 |lr: 0.00010000 |Tot: 0:00:00 |ETA: 0:00:00 |loss 31.8074 |conf_loss 25.7779 |cls_loss 1.1277 |iou_loss 4.9018 |num_fg 1.0000 |Data 0.349s |Batch 0.666s
xxxxxxxxxxxx: torch.Size([1, 3, 640, 640])
xxxxx:projjjjjjjjjjjjj: torch.Size([1, 96, 160, 160])
flatten: torch.Size([1, 25600, 96])
pos_drop: torch.Size([1, 25600, 96])
--------------------------------------------------
0 BasicLayer(
  (blocks): ModuleList(
    (0): SwinTransformerBlock(
      (norm1): LayerNorm((96,), eps=1e-05, elementwise_affine=True)
      (attn): WindowAttention(
        (qkv): Linear(in_features=96, out_features=288, bias=True)
        (attn_drop): Dropout(p=0.0, inplace=False)
        (proj): Linear(in_features=96, out_features=96, bias=True)
        (proj_drop): Dropout(p=0.0, inplace=False)
        (softmax): Softmax(dim=-1)
      )
      (drop_path): Identity()
      (norm2): LayerNorm((96,), eps=1e-05, elementwise_affine=True)
      (mlp): Mlp(
        (fc1): Linear(in_features=96, out_features=384, bias=True)
        (act): GELU()
        (fc2): Linear(in_features=384, out_features=96, bias=True)
        (drop): Dropout(p=0.0, inplace=False)
      )
    )
    (1): SwinTransformerBlock(
      (norm1): LayerNorm((96,), eps=1e-05, elementwise_affine=True)
      (attn): WindowAttention(
        (qkv): Linear(in_features=96, out_features=288, bias=True)
        (attn_drop): Dropout(p=0.0, inplace=False)
        (proj): Linear(in_features=96, out_features=96, bias=True)
        (proj_drop): Dropout(p=0.0, inplace=False)
        (softmax): Softmax(dim=-1)
      )
      (drop_path): DropPath()
      (norm2): LayerNorm((96,), eps=1e-05, elementwise_affine=True)
      (mlp): Mlp(
        (fc1): Linear(in_features=96, out_features=384, bias=True)
        (act): GELU()
        (fc2): Linear(in_features=384, out_features=96, bias=True)
        (drop): Dropout(p=0.0, inplace=False)
      )
    )
  )
  (downsample): PatchMerging(
    (reduction): Linear(in_features=384, out_features=192, bias=False)
    (norm): LayerNorm((384,), eps=1e-05, elementwise_affine=True)
  )
)
--------------------------------------------------
1 BasicLayer(
  (blocks): ModuleList(
    (0): SwinTransformerBlock(
      (norm1): LayerNorm((192,), eps=1e-05, elementwise_affine=True)
      (attn): WindowAttention(
        (qkv): Linear(in_features=192, out_features=576, bias=True)
        (attn_drop): Dropout(p=0.0, inplace=False)
        (proj): Linear(in_features=192, out_features=192, bias=True)
        (proj_drop): Dropout(p=0.0, inplace=False)
        (softmax): Softmax(dim=-1)
      )
      (drop_path): DropPath()
      (norm2): LayerNorm((192,), eps=1e-05, elementwise_affine=True)
      (mlp): Mlp(
        (fc1): Linear(in_features=192, out_features=768, bias=True)
        (act): GELU()
        (fc2): Linear(in_features=768, out_features=192, bias=True)
        (drop): Dropout(p=0.0, inplace=False)
      )
    )
    (1): SwinTransformerBlock(
      (norm1): LayerNorm((192,), eps=1e-05, elementwise_affine=True)
      (attn): WindowAttention(
        (qkv): Linear(in_features=192, out_features=576, bias=True)
        (attn_drop): Dropout(p=0.0, inplace=False)
        (proj): Linear(in_features=192, out_features=192, bias=True)
        (proj_drop): Dropout(p=0.0, inplace=False)
        (softmax): Softmax(dim=-1)
      )
      (drop_path): DropPath()
      (norm2): LayerNorm((192,), eps=1e-05, elementwise_affine=True)
      (mlp): Mlp(
        (fc1): Linear(in_features=192, out_features=768, bias=True)
        (act): GELU()
        (fc2): Linear(in_features=768, out_features=192, bias=True)
        (drop): Dropout(p=0.0, inplace=False)
      )
    )
  )
  (downsample): PatchMerging(
    (reduction): Linear(in_features=768, out_features=384, bias=False)
    (norm): LayerNorm((768,), eps=1e-05, elementwise_affine=True)
  )
)
--------------------------------------------------
2 BasicLayer(
  (blocks): ModuleList(
    (0): SwinTransformerBlock(
      (norm1): LayerNorm((384,), eps=1e-05, elementwise_affine=True)
      (attn): WindowAttention(
        (qkv): Linear(in_features=384, out_features=1152, bias=True)
        (attn_drop): Dropout(p=0.0, inplace=False)
        (proj): Linear(in_features=384, out_features=384, bias=True)
        (proj_drop): Dropout(p=0.0, inplace=False)
        (softmax): Softmax(dim=-1)
      )
      (drop_path): DropPath()
      (norm2): LayerNorm((384,), eps=1e-05, elementwise_affine=True)
      (mlp): Mlp(
        (fc1): Linear(in_features=384, out_features=1536, bias=True)
        (act): GELU()
        (fc2): Linear(in_features=1536, out_features=384, bias=True)
        (drop): Dropout(p=0.0, inplace=False)
      )
    )
    (1): SwinTransformerBlock(
      (norm1): LayerNorm((384,), eps=1e-05, elementwise_affine=True)
      (attn): WindowAttention(
        (qkv): Linear(in_features=384, out_features=1152, bias=True)
        (attn_drop): Dropout(p=0.0, inplace=False)
        (proj): Linear(in_features=384, out_features=384, bias=True)
        (proj_drop): Dropout(p=0.0, inplace=False)
        (softmax): Softmax(dim=-1)
      )
      (drop_path): DropPath()
      (norm2): LayerNorm((384,), eps=1e-05, elementwise_affine=True)
      (mlp): Mlp(
        (fc1): Linear(in_features=384, out_features=1536, bias=True)
        (act): GELU()
        (fc2): Linear(in_features=1536, out_features=384, bias=True)
        (drop): Dropout(p=0.0, inplace=False)
      )
    )
    (2): SwinTransformerBlock(
      (norm1): LayerNorm((384,), eps=1e-05, elementwise_affine=True)
      (attn): WindowAttention(
        (qkv): Linear(in_features=384, out_features=1152, bias=True)
        (attn_drop): Dropout(p=0.0, inplace=False)
        (proj): Linear(in_features=384, out_features=384, bias=True)
        (proj_drop): Dropout(p=0.0, inplace=False)
        (softmax): Softmax(dim=-1)
      )
      (drop_path): DropPath()
      (norm2): LayerNorm((384,), eps=1e-05, elementwise_affine=True)
      (mlp): Mlp(
        (fc1): Linear(in_features=384, out_features=1536, bias=True)
        (act): GELU()
        (fc2): Linear(in_features=1536, out_features=384, bias=True)
        (drop): Dropout(p=0.0, inplace=False)
      )
    )
    (3): SwinTransformerBlock(
      (norm1): LayerNorm((384,), eps=1e-05, elementwise_affine=True)
      (attn): WindowAttention(
        (qkv): Linear(in_features=384, out_features=1152, bias=True)
        (attn_drop): Dropout(p=0.0, inplace=False)
        (proj): Linear(in_features=384, out_features=384, bias=True)
        (proj_drop): Dropout(p=0.0, inplace=False)
        (softmax): Softmax(dim=-1)
      )
      (drop_path): DropPath()
      (norm2): LayerNorm((384,), eps=1e-05, elementwise_affine=True)
      (mlp): Mlp(
        (fc1): Linear(in_features=384, out_features=1536, bias=True)
        (act): GELU()
        (fc2): Linear(in_features=1536, out_features=384, bias=True)
        (drop): Dropout(p=0.0, inplace=False)
      )
    )
    (4): SwinTransformerBlock(
      (norm1): LayerNorm((384,), eps=1e-05, elementwise_affine=True)
      (attn): WindowAttention(
        (qkv): Linear(in_features=384, out_features=1152, bias=True)
        (attn_drop): Dropout(p=0.0, inplace=False)
        (proj): Linear(in_features=384, out_features=384, bias=True)
        (proj_drop): Dropout(p=0.0, inplace=False)
        (softmax): Softmax(dim=-1)
      )
      (drop_path): DropPath()
      (norm2): LayerNorm((384,), eps=1e-05, elementwise_affine=True)
      (mlp): Mlp(
        (fc1): Linear(in_features=384, out_features=1536, bias=True)
        (act): GELU()
        (fc2): Linear(in_features=1536, out_features=384, bias=True)
        (drop): Dropout(p=0.0, inplace=False)
      )
    )
    (5): SwinTransformerBlock(
      (norm1): LayerNorm((384,), eps=1e-05, elementwise_affine=True)
      (attn): WindowAttention(
        (qkv): Linear(in_features=384, out_features=1152, bias=True)
        (attn_drop): Dropout(p=0.0, inplace=False)
        (proj): Linear(in_features=384, out_features=384, bias=True)
        (proj_drop): Dropout(p=0.0, inplace=False)
        (softmax): Softmax(dim=-1)
      )
      (drop_path): DropPath()
      (norm2): LayerNorm((384,), eps=1e-05, elementwise_affine=True)
      (mlp): Mlp(
        (fc1): Linear(in_features=384, out_features=1536, bias=True)
        (act): GELU()
        (fc2): Linear(in_features=1536, out_features=384, bias=True)
        (drop): Dropout(p=0.0, inplace=False)
      )
    )
  )
  (downsample): PatchMerging(
    (reduction): Linear(in_features=1536, out_features=768, bias=False)
    (norm): LayerNorm((1536,), eps=1e-05, elementwise_affine=True)
  )
)
--------------------------------------------------
3 BasicLayer(
  (blocks): ModuleList(
    (0): SwinTransformerBlock(
      (norm1): LayerNorm((768,), eps=1e-05, elementwise_affine=True)
      (attn): WindowAttention(
        (qkv): Linear(in_features=768, out_features=2304, bias=True)
        (attn_drop): Dropout(p=0.0, inplace=False)
        (proj): Linear(in_features=768, out_features=768, bias=True)
        (proj_drop): Dropout(p=0.0, inplace=False)
        (softmax): Softmax(dim=-1)
      )
      (drop_path): DropPath()
      (norm2): LayerNorm((768,), eps=1e-05, elementwise_affine=True)
      (mlp): Mlp(
        (fc1): Linear(in_features=768, out_features=3072, bias=True)
        (act): GELU()
        (fc2): Linear(in_features=3072, out_features=768, bias=True)
        (drop): Dropout(p=0.0, inplace=False)
      )
    )
    (1): SwinTransformerBlock(
      (norm1): LayerNorm((768,), eps=1e-05, elementwise_affine=True)
      (attn): WindowAttention(
        (qkv): Linear(in_features=768, out_features=2304, bias=True)
        (attn_drop): Dropout(p=0.0, inplace=False)
        (proj): Linear(in_features=768, out_features=768, bias=True)
        (proj_drop): Dropout(p=0.0, inplace=False)
        (softmax): Softmax(dim=-1)
      )
      (drop_path): DropPath()
      (norm2): LayerNorm((768,), eps=1e-05, elementwise_affine=True)
      (mlp): Mlp(
        (fc1): Linear(in_features=768, out_features=3072, bias=True)
        (act): GELU()
        (fc2): Linear(in_features=3072, out_features=768, bias=True)
        (drop): Dropout(p=0.0, inplace=False)
      )
    )
  )
)
torch.Size([1, 256, 80, 80])
torch.Size([1, 512, 40, 40])
torch.Size([1, 1024, 20, 20])
torch.Size([1, 512, 20, 20])
torch.Size([1, 512, 40, 40])
coco_CSPDarknet-s_640x640| val: total_epoch[2/300] total_batch[2/2] batch[2/2] |size: 1x3x640x640 |lr: 0.00010000 |Tot: 0:00:00 |ETA: 0:00:01 |loss 34.4206 |conf_loss 28.4469 |cls_loss 1.0523 |iou_loss 4.9214 |num_fg 1.0000 |Data 0.001s |Batch 0.121s
…
